models/gen_1.pth (torch, 581015 bytes, 24 tensors)

weight f4 [64, 4, 3, 3]
00000000: 42d3 9b3c 5e46 26bd 685c 3bbd 8cf6 623c
00000010: 0465 063d 3f90 e73c 760f eebc ef21 1cbd
00000020: 2690 44bd 58a9 53bd e2a5 aebc 76a5 603d
00000030: 11ed 25bd b65d bf3c 9366 15be ef7d 6d3c
00000040: 9563 c63d a91d 283d e003 74bc af92 203d
00000050: 0567 02bd 7d88 953d bc38 1b3e e0c4 8c3d
00000060: c963 263e 94d1 e3bd 8de9 a13c 077b 243e
00000070: 0616 323e 150f 023e 7153 27be 977c 563d
00000080: cc09 03be 7877 01be e7cd 48bd babb c2bd
00000090: 0ccd 693c 9c26 8abc 3b88 1dbc 7e83 c43c
000000a0: d32f 2dbd e4df cbbd ee2d ca3b 1339 a93d
000000b0: 0308 1e3d ee41 153e 7377 b13d 1d04 723d
000000c0: b41c ecbd c3d2 e93d 3e45 54bc fb87 e83d
000000d0: 3bb9 f33d 4362 18be a591 f23d 2d28 eb3c
000000e0: 6fc7 073e 1f4d 313e 8467 0bbd aba2 e13d
000000f0: 8ce5 71bd 314d e5bd 920c fabd ddda adbd
00000100: a240 dfbd 5f6b 373e c00d a33d b85e 173d
00000110: 1453 be3d b12c 3ebc d007 f83d b860 10be
00000120: 75a1 9abc ff59 91bd a860 f83d 4488 5c3d
00000130: f3cd 95bd 48f8 053d 027e 65bd c223 cc3d
00000140: ac42 49bd 46e2 5d3d da29 0abe a165 edbc
00000150: 2278 7c3d 0dba a6bd 8891 d5bb a448 783d
00000160: 223a 1cbe 3740 c5bb f63b 7c3d 6691 30be
00000170: 3646 bd3d ea43 ea3d b569 df3d e12a 23be
00000180: 09c4 333d bcf1 343d 2bae 4cbe 7dd6 55bd
00000190: 9277 9fbd b8f7 09be 0de7 a1bd 2a15 a83d
000001a0: 0176 14be 1fb6 1b3e 7627 a23b e276 a43d
000001b0: db83 e53c f967 8dbd b20c c3bd 229d 9dbd
000001c0: e5e9 16bd 6a74 903c 0758 48bc 5bfe 533c
000001d0: 53a1 4d3d b759 1a3e e251 08be b623 2abb
000001e0: 9bfb a0bd f7d9 93bd 59fa b93d cc32 4c3d
000001f0: 5bd7 983d 7d50 01bd 796d cfbd c9ac fd3d
00000200: c735 42be e504 a43c c235 e73d 157d d5bd
00000210: 1146 10bd 155b 37bd 7801 fe3d 12ee 78be
00000220: 992c 42bc b3f4 9abd ff6e a5bd 1f01 893d
00000230: 2ec4 58bc a263 803d e314 a9bd 6de5 a4bd
00000240: 22a2 c33b 2bec 76bd 14ea fabd 6227 95bd
00000250: aaac 623d a7bb b2bd a042 213d 330b bcbd
00000260: 1bc3 f13d a1f3 04be 2941 1cbd 0f0e 08be
00000270: ac5b f5bd 7510 09bc 6e0a f33b 5ee5 95bd
00000280: f07e a13d 7c83 1fbe a53e 5dbc 5abf c6bd
00000290: 175e b3bd e801 e53d 84ad 0b3e 8b64 32bd
000002a0: b9ba 093e af34 f23c 2500 a6bc 7b21 6f3b
000002b0: 875c 07be 1daa d23d 1509 dfbd c327 013d
000002c0: 26c7 da3d 9ed0 b4bd 9846 a43d 6223 963d
000002d0: 01ea f13c 3a47 c33d 6cfb 923d 9877 88bd
000002e0: 54e0 df3d d527 003e c805 5b3d 2944 fd3d
000002f0: cdfd 9cbd b261 943d 9f15 e0bd 73f6 70bd
00000300: 70c1 8b3b d2dd ee3d fe71 d33d 43de 9bbd
00000310: 7e09 033e e9c4 30bd 1c71 b13d a091 733d
00000320: 75b4 b23d 39ef d03d 88b6 bf3c ece9 d03c
00000330: 5b0a fc3c 625e 2f3e 965c 703d 8c16 6fbc
00000340: 27ad 213e 9509 debd 789b 05be c773 c83d
00000350: faa9 b4bd 4c1a 153e 19e4 213e 2e37 08bd
00000360: b066 ebbc d82d 32bd ecfb 233d 8dd8 2bbd
00000370: e490 9d3d 8c92 c53d b172 5b3d 39ca e3bc
00000380: 3391 163d 4b1b aebd 3055 25be d9e0 693d
00000390: fc16 a2bc 12d5 4e3d f17a ab3d 53c9 34be
000003a0: 77dc b5bd 9ff5 203c 93ef f83c d692 31bc
000003b0: 625e b83c d0f7 963d ccfd 3abe 3449 31bd
000003c0: 10f3 16bd 6060 743d be5a b1bc 01ec 373e
000003d0: c307 253d 463f babd 02cd b43d 8d61 643d
000003e0: d9d6 f43d 7781 2f3e fad2 333d bb88 3b3d
000003f0: 8535 3e3d 6947 bdbc 1ed5 a0bd a075 3e3d
0.019021634 -0.04059445 -0.045742422 0.013852727 0.03281118 0.028267024 -0.029060107 -0.0381183
-0.047989033 -0.05167517 -0.021319333 0.054845296 -0.040509287 0.023360115 -0.1458991 0.014495357
0.096869625 0.04104391 -0.014893502 0.03920239 -0.03183653 0.07301424 0.15158361 0.068734884
0.16249003 -0.11123958 0.019764686 0.16062556 0.17391214 0.12701066 -0.16340424 0.052364912
-0.12796706 -0.1264323 -0.04902449 -0.09508462 0.014270078 -0.016864114 -0.009614999 0.023988482
-0.042281937 -0.09954813 0.006170026 0.08262839 0.03858186 0.14575931 0.08665361 0.059085954
-0.11528912 0.11417153 -0.012955962 0.11354061 0.11900564 -0.14881234 0.11844186 0.02870568
0.13259672 0.17314576 -0.034034267 0.110173546 -0.059056804 -0.11196364 -0.12209429 -0.084890105
-0.109009996 0.17912053 0.07961607 0.036955565 0.0929319 -0.011607335 0.12110865 -0.14099395
-0.018875817 -0.070972435 0.12127811 0.05384089 -0.07314672 0.032707483 -0.056028374 0.09967758
-0.04913585 0.05417087 -0.13492528 -0.028979125 0.061638005 -0.08140955 -0.006517593 0.06061615
-0.15256551 -0.006019618 0.06158062 -0.17242965 0.09241907 0.11438735 0.10908834 -0.15934326
0.043888126 0.04417585 -0.19988315 -0.052206505 -0.07786478 -0.13473403 -0.079053976 0.08207162
-0.1449814 0.15206192 0.0049485518 0.080304876 0.028016975 -0.06904597 -0.09523906 -0.07695986
-0.036844153 0.017633636 -0.012228019 0.012939061 0.05020268 0.15073286 -0.13312486 -0.0025961227
-0.0786049 -0.07219308 0.09080953 0.04985313 0.07462951 -0.0315709 -0.10128302 0.12386472
-0.18965827 0.020021865 0.1128955 -0.10424248 -0.03522307 -0.044764597 0.12402624 -0.24309567
-0.011851453 -0.07566204 -0.080778114 0.06689667 -0.013230367 0.062690035 -0.08255937 -0.08051572
0.0059702555 -0.06028382 -0.12251678 -0.07282902 0.055340447 -0.08727198 0.03937018 -0.091818236
0.118047915 -0.12983562 -0.03814808 -0.13286613 -0.11980376 -0.00836574 0.007417015 -0.07319139
0.078855395 -0.15577501 -0.013503705 -0.09704466 -0.087581806 0.11182004 0.1364041 -0.043552916
0.13450135 0.029566137 -0.02026374 0.0036488462 -0.1321889 0.10286353 -0.10890404 0.03153206
0.10682516 -0.08828853 0.08021277 0.073309675 0.029530527 0.0953507 0.07176861 -0.06663436
0.10931459 0.12515195 0.05347231 0.12366516 -0.07665596 0.072451964 -0.10941624 -0.058828782
0.004265003 0.116634026 0.10324477 -0.076107524 0.1279659 -0.04315654 0.08664152 0.05946505
0.08725826 0.10201878 0.023402467 0.025502168 0.030766657 0.17125848 0.058682047 -0.014592778
0.15788709 -0.108416714 -0.13047588 0.09787708 -0.08821483 0.14560813 0.15809669 -0.03325575
-0.028735489 -0.04350075 0.040035173 -0.041954566 0.07693651 0.09647092 0.053576175 -0.027806388
0.036759567 -0.085012995 -0.16145778 0.057099197 -0.01978635 0.05049617 0.083730586 -0.17654924
-0.08879941 0.009824186 0.030387675 -0.010838231 0.022505943 0.07371485 -0.18260878 -0.043282703
-0.036852896 0.059662223 -0.021649715 0.17961122 0.040290605 -0.090941 0.08828165 0.055757094
0.119550414 0.1713923 0.043902375 0.045784693 0.04643776 -0.02310534 -0.07853149 0.046498895

bias f4 [64]
00000000: ee6e 463e b0b2 343c 1c44 153d 2973 ffbc
00000010: 002b 373e 99e0 13be e074 41bd b4ff d2bc
00000020: 0c8f 31be 6adf 9c3d c8e7 0e3e 2cce ad3d
00000030: c8df 11bd 866b 65bd 3679 76bb bf52 29bd
00000040: 08b1 fdbc 1b82 333e 1357 05bd 8dbb 383e
00000050: c6c5 8cbd 170f ac3d 6313 7dbd fef8 0e3e
00000060: d6fd a13d 877f 31bd 7374 bcbd 63da d2bd
00000070: e11c 2f3e 3328 49bd be21 b6bd f78d c23d
00000080: c2de 08bd 2e0d d63d 6478 20bd f8f9 1c3d
00000090: 1413 38bc a3d7 c13d fe53 8a3d cd9a 833d
000000a0: 9e8a edbd 5ed7 6938 ff59 12bd a4d7 90bd
000000b0: df4b 2d3e 783b 0bbe 191a b5bd bae6 6d3c
000000c0: a0f8 aa3d 291f 943d bcea e63c 5ac6 3e3e
000000d0: 30b1 39bd 63a7 babd 497e 083d a37d 53bd
000000e0: a1ba 453e f702 d2bc 4c3d 0dbc a50b b0bc
000000f0: 09c4 763d 06d9 42bd ee5a 32be 56c4 1f3e
0.19378254 0.011028931 0.036441907 -0.031182842 0.17887497 -0.14441146 -0.0472306 -0.025756694
-0.17339724 0.076598 0.13955605 0.0848659 -0.035613805 -0.056010745 -0.0037608868 -0.04133868
-0.030968204 0.175301 -0.032553744 0.18040295 -0.0687366 0.08401316 -0.061786067 0.1396217
0.079097435 -0.04333451 -0.092018984 -0.1029556 0.1710086 -0.049110603 -0.088931546 0.09499734
-0.033415563 0.104517326 -0.039177313 0.038324326 -0.011235017 0.094649576 0.067543015 0.0642601
-0.11598705 5.5752105e-05 -0.03573036 -0.0707238 0.16923474 -0.13596904 -0.08842868 0.0145203415
0.08348203 0.07232506 0.028188102 0.18630353 -0.045334995 -0.09113958 0.03332356 -0.05163349
0.19309475 -0.02563618 -0.008620571 -0.021489928 0.060245547 -0.04757025 -0.174175 0.1560224

weight f4 [64]
00000000: d22b 863f d8be 783f 4606 773f 67a7 873f
00000010: f0fd 763f f993 7b3f e4e4 803f 8047 813f
00000020: a974 7b3f 5b3c 733f 3175 833f a6a6 7e3f
00000030: a6bc 7e3f 4e88 7e3f 5166 7e3f 68b0 803f
00000040: 6c25 6d3f 8cf9 803f d935 7b3f e4b6 7f3f
00000050: 2aa5 753f cc55 813f 2328 703f 2bde 763f
00000060: bdc8 813f 6f87 823f a118 7d3f 7580 843f
00000070: 7754 813f 16ed 803f e161 813f fda0 823f
00000080: b603 813f 5437 823f 6865 763f 09e7 7d3f
00000090: 703e 813f 694f 833f 71ab 833f 919b 743f
000000a0: 7a43 7d3f c52b 883f 89d5 7c3f 240a 743f
000000b0: 7cbd 7b3f 600b 753f 6864 7f3f 4500 863f
000000c0: ad85 813f e139 7d3f 3fe6 7e3f 1e29 763f
000000d0: a89b 773f ee0f 7b3f 9dfe 803f ba2f 803f
000000e0: f0de 6f3f fd2d 793f 7a5c 803f 61a5 843f
000000f0: 0253 803f b37a 833f eeae 7a3f 1e85 783f
1.0482123 0.97166204 0.9649395 1.0597962 0.9648123 0.98272663 1.0069852 1.0099945
0.98224884 0.9501397 1.0270139 0.99473035 0.99506605 0.99426734 0.9937487 1.0053835
0.92635226 1.0076156 0.9812904 0.99888444 0.95955145 1.0104308 0.93811244 0.9643275
1.0139385 1.0197581 0.98865706 1.0351702 1.0103902 1.0072353 1.0107995 1.020538
1.0079257 1.0173135 0.96248484 0.99180657 1.009718 1.0258609 1.0286695 0.95549875
0.98931086 1.0638357 0.9876333 0.95327973 0.98336005 0.9572048 0.9976258 1.0468832
1.011892 0.9891644 0.9957008 0.9615649 0.9672189 0.9807118 1.0077702 1.0014565
0.9369955 0.973358 1.0028222 1.036297 1.0025332 1.027182 0.9792317 0.9707812

bias f4 [64]
00000000: 1c23 16be 8e4e 4cbd d905 933d 0114 01be
00000010: c775 103e 4f82 48be 9a80 77bd 084e 9bbd
00000020: ce71 f2bd fa38 60bd 80fd e5bc 16d0 05be
00000030: 4b53 cebd cac5 35be a5ed 4abd 0d8b 75be
00000040: 2a08 103e efac babd 155a 193c af5a 99be
00000050: 7afa 19be 45ec 30be 3a57 8b3d 281f b03d
00000060: f02f 5dbd 63bb d5bd f25c dc3a c9e2 97bd
00000070: 2c11 22be aa33 c4bc d3d3 39be 7a47 073d
00000080: e430 3bbe cf9a 60bd 70bc 27be 2ba9 203d
00000090: 1352 82be f5f8 c13d f4d4 f0bd 91cb 03bd
000000a0: acd1 713c 47af bbbd f612 bbbd 21cf 27be
000000b0: 9553 d4bd 812a 6ebd 995e bebd 2db1 80bd
000000c0: d52b 61be 7834 1bbc ff2b 04bd f29d 0d3e
000000d0: ee52 31be 58cf adbd 7e7f 32be 49cd 083b
000000e0: c917 7d3d f7c6 a8bd 3c0e 31be 77f1 66bd
000000f0: 0724 c3bc e244 e1bc 33a2 32be b0e5 1ebd
-0.1466183 -0.049879603 0.0717885 -0.12605287 0.14107428 -0.19580959 -0.06042538 -0.07583243
-0.11838113 -0.054741837 -0.02807498 -0.1306766 -0.100744806 -0.17751232 -0.04954304 -0.23978825
0.14065614 -0.09115016 0.009359856 -0.29952 -0.15036955 -0.1727763 0.068037465 0.085996926
-0.054000795 -0.10436132 0.0016812368 -0.07416303 -0.15826863 -0.023950417 -0.18147211 0.03302715
-0.18280369 -0.054835137 -0.16380477 0.03922383 -0.25453243 0.09471313 -0.117593676 -0.032176558
0.014759462 -0.09164291 -0.09134476 -0.16387607 -0.103675045 -0.058146004 -0.09295387 -0.062837936
-0.21989377 -0.009472959 -0.03226852 0.13829783 -0.17316791 -0.08486813 -0.17431447 0.0020874313
0.06179026 -0.082410745 -0.17290586 -0.056382623 -0.02382089 -0.027498666 -0.17444687 -0.038793266

running_mean f4 [64]
00000000: 5b6c 423e c98a c43d 0200 da3d b5ed a93d
00000010: 4359 3d3e 010e 7d3d a6ee f13c 3377 ac3d
00000020: c770 af3c 1333 f93d 950b 073e e70d 193e
00000030: 62f9 033e d915 fd3c 9a23 d33d 1a0c aa3d
00000040: faf9 3d3d e7f6 1c3e 2e44 543d 3287 5d3e
00000050: 01ab 6e3d c713 fb3d 72bb 283d 607b 123e
00000060: f7c9 cd3d e645 113e adc9 623c 21b6 9a3d
00000070: 8846 3e3e 5a3e 973d 738d ae3c 42f1 ca3d
00000080: 411d 453d 089f 433e c5e4 ae3d 55c0 893d
00000090: fd4f fd3d 49f9 bf3d c855 d63d dbd2 cf3d
000000a0: 954e 903b 14b1 b23d cbaa 473e 0249 173c
000000b0: e7b5 503e cb3e b73c 92d5 643d c9ec 2d3d
000000c0: 9360 803e 2154 b03d a687 8d3d e81a 473e
000000d0: 9815 8a3d 32fa 8b3c ada2 873d b586 973d
000000e0: 8233 343e 99f2 ae3d e13f 253e 23ec cb3d
000000f0: 4fdc 543e ffe0 873c 0df2 3739 d2f9 253e
0.18986647 0.09596784 0.10644533 0.08297292 0.18491082 0.061780933 0.029532742 0.08421173
0.021416081 0.12167945 0.13188012 0.1494671 0.128881 0.030894207 0.10309525 0.083030894
0.046380974 0.15328561 0.051822834 0.21633604 0.05826855 0.122596316 0.041194387 0.14304876
0.10048287 0.1418682 0.013842029 0.075542696 0.18581593 0.073849395 0.021307683 0.099092975
0.0481236 0.19103634 0.08539728 0.067261375 0.12368772 0.09373719 0.1046558 0.10147639
0.004403899 0.08725181 0.19498746 0.009233715 0.2038189 0.02236881 0.05586774 0.042462144
0.2507368 0.08609796 0.069106385 0.19443858 0.067424 0.017087076 0.06622825 0.0739874
0.17597774 0.085423656 0.16137649 0.09957149 0.20787166 0.016586779 0.00017542411 0.1620858

running_var f4 [64]
00000000: 94a1 5e3c 3c1f d33c cfb3 7f3c 0f30 3e3c
00000010: cfc3 8c3c 02c3 a83c fb34 bc3b 28a8 883c
00000020: d8ca 863b 744b 1d3d eafa 823c 91f0 9e3c
00000030: e65c 153d 9dc6 b13b f9c3 0b3d 5416 e23c
00000040: 2c4b b93b 5836 833c 33f9 2c3c 6046 523c
00000050: d6a7 e43b de39 0f3d 8b7f d63b 3706 083d
00000060: 65ed 203c c0ee 143d 309e 0a3b 632d 753c
00000070: 7881 a53c 1434 b73c b51c 563b 3bb4 563c
00000080: 394a 283c 3be8 e43c 745d 883c d8c3 a73b
00000090: d479 ba3c 0b72 b23b e76b a73c c6b7 423c
000000a0: cc5a 2a3a d5c3 223c 4083 7e3d 6731 8c3a
000000b0: a69e e23c 4899 813b e2fe 753c ab49 aa3b
000000c0: c7ba 783d 36bf 123c 22d0 f53b 3722 3d3c
000000d0: e002 423c 93b9 7a3b 57cf ab3b bf7c 743c
000000e0: 692d 5c3c 18ae c23c 9d6d 313d be64 9a3c
000000f0: 0df9 5b3d 2a4c 3a3b c29a 4337 9f7c 2e3c
0.013588328 0.02577173 0.015606835 0.011608138 0.017183213 0.0206008 0.0057436205 0.016681746
0.0041135363 0.038402036 0.015988786 0.01940182 0.036465548 0.005425288 0.03412244 0.027598538
0.005654713 0.016017124 0.010557461 0.0128341615 0.0069780154 0.034967296 0.006545966 0.033209052
0.009822224 0.036360502 0.0021151416 0.014964434 0.020203337 0.0223637 0.003267092 0.013104494
0.010271602 0.027942767 0.016646124 0.005119782 0.02276317 0.005445724 0.020437194 0.011884635
0.0006498515 0.009934385 0.06213689 0.0010695875 0.02766354 0.00395504 0.015014382 0.00519677
0.060725 0.008956721 0.007501618 0.011543802 0.011841506 0.0038257584 0.0052432227 0.01492232
0.013438561 0.023764655 0.043317426 0.018846866 0.05370431 0.0028426745 1.1658938e-05 0.010649829

weight f4 [64, 64, 3, 3]
00000000: b87c 71bd 8692 2bbd a0b9 b7bc 2409 d33c
00000010: c1fb 1fbb a653 a0bc c95b c8bc 1155 743d
00000020: ba3e 04bd bb9a be3b 3784 003c ff71 c63c
00000030: 3676 51bd 5fd0 9abc 8ac9 98bd 50f1 15bc
00000040: d522 17bd f73a c83c b8d7 2a3c 7681 cc3c
00000050: 635d 813d 5ad8 df3a 967e 06bd 14d4 13bc
00000060: 02e7 bb3c 47cd 86bd d5bf c9bc ff16 d33b
00000070: 00e1 b43c b710 0c3d 405d 46bd c753 b83c
00000080: 002d 4cbd 6de2 b9bc c7ed 553d 8e0e 84bc
00000090: 4f27 223c 8e39 3fbc c495 bcbb 5748 f6bc
000000a0: 17a3 babc eb13 1f3c 07af eebc 579b babc
000000b0: f02e 2bbc 752d 74bb 4f77 733d cb8b 793d
000000c0: e57f c9bc c5a6 0a3d ffa8 52bd f593 09bd
000000d0: c2d9 3ebd 238d 0cbd 1bb0 8ebc e01b 433d
000000e0: e215 59bc 86a7 75bd c163 76bc 7cde b23c
000000f0: 40b0 80bc 7e9c 11bb 1cb3 e3bc f262 63bc
00000100: 4aca cdbb cce0 ccbc 648d 30bd 67ab ea3c
00000110: ca40 12bd ef23 d03a 0949 c73c bd18 b33c
00000120: 7145 253d a669 2b3d 76cb 6bbc 7514 8bbc
00000130: d84b e13c 45c0 eaba 0690 3e3c 646d 253c
00000140: 9e1c fdbb 201d af3c 4970 113d aaa9 573d
00000150: b2dd 663c b854 22bd af68 cf3c 18cb 6ebd
00000160: dfc7 1bbd 0a9f ff3b 7e4f adba 7512 c53c
00000170: 5838 52bd 7cc5 063c 9909 3e3d c10c 103d
00000180: 72da b73a e63c 39bd a5b2 f6bb 84bd c53c
00000190: 8df1 2d3d eaf7 073d 47fb 703c 33d4 3e3d
000001a0: 27b5 db3a e70a 033c 0cce 9a3c a045 2c3c
000001b0: 83fd a5bb e923 7abc 0c4c 5038 1284 7fbd
000001c0: 47e4 a33c 40b5 e13b ad94 46bd 806a 57bc
000001d0: 646e 1dbd 6872 5c3c a7ec 093d ef11 3e3d
000001e0: e729 e5bc dc30 38bc 8bf5 ac3c 4a58 bdbd
000001f0: d3e7 4dbd 1821 f93a 7b63 0ebd 8c1b 2e3d
00000200: 6b3b ae3c 8a44 68bc 0fa4 a43c 7f4f a93b
00000210: d020 f8bc ff08 b53c 83d3 ffbb af10 433d
00000220: 6105 8e3d e6bc 49bc fa44 13bc 3701 afbb
00000230: c701 70bc 67a9 0dba c8f4 ce3a 9f47 65bc
00000240: a6ef e6bc e08e dc3c 4dd0 83bb 72b7 95bc
00000250: 6265 5e3c f0a0 3e3b b328 5dbc 4e69 d53c
00000260: 9d68 ab3c 8ce5 19bd 6012 d1b9 00c1 dc3c
00000270: 2219 19bc 3217 04bc ee7a 1bbc 7c7a 283c
00000280: 2692 c9bc 2534 f23b 90ed 21bb 39b5 5bbc
00000290: 3820 d43b 8d14 363a 59ea 50bd 1bae 70bd
000002a0: 1869 80bb 2785 0fbd 6b89 ef3a 63bc 31bd
000002b0: 8b1e babc de08 2a3c 631c 19bd a8d7 dabc
000002c0: e4b4 d0bc c169 18bd 9c99 1a3c b851 c43c
000002d0: dea3 b33c 8bcc f1ba 720e 323d 656e 3abd
000002e0: 23e8 cc3c 874c d4bb 6a35 15bd 381d b5ba
000002f0: 7481 e8bc bd36 e23c 2fbf 8139 e058 613c
00000300: 753f d0bc 2587 fdbc 2103 ba3b 0bc8 4ebd
00000310: 9188 3fbd 4983 f4bc 5b5e 483b 5803 73ba
00000320: 8ac7 10bd b9a7 e63c 057c 063d c425 f63b
00000330: f09d 1cbc beab 2e3c 93c7 ef3c a0ed 03bd
00000340: 051f aebc 91b1 e33c 0113 7e3c 2d85 a5bc
00000350: 5db8 783b 0efb f1bc aca7 cb3a 9db6 94bc
00000360: 8aec e63c c758 273c 1762 173c d1bf 9b3c
00000370: 25da 89bd 889d 7d3c b9fa a53c bfdd 10bb
00000380: d82c ed3c 44f4 233d 9d6a 2d3d 56da 3bbb
00000390: 5322 51bd 79f0 59bd bd36 e1bc c726 3dbb
000003a0: 46c7 0bbd bac6 4a3b 1e1e 983d 39b8 19bd
000003b0: 260c 093d 24a7 cb3c 7f37 2ebc bc24 eb3c
000003c0: af45 2938 4209 81bc fe5b b13c 222b 51bd
000003d0: 0051 c13c a0e1 d4bc bdb0 4dbd 490a afbb
000003e0: fc20 53bd 428c 93bd da2a 55bc dfd3 6fbd
000003f0: 41e5 afbc 77ba 07bc 27d9 3cbc e3ac fcbc
-0.05895683 -0.041887783 -0.02242738 0.025761195 -0.0024411532 -0.019571137 -0.02445783 0.05965144
-0.032286383 0.005816785 0.0078440225 0.02422428 -0.051138125 -0.018898187 -0.074603155 -0.009151772
-0.036898453 0.02444218 0.010427408 0.024964076 0.0631664 0.0017078028 -0.032835566 -0.009022731
0.022937302 -0.06582122 -0.024627605 0.0064419503 0.022079945 0.034195628 -0.048428774 0.022500886
-0.049847603 -0.022690976 0.052228715 -0.016120221 0.009897067 -0.011671437 -0.005755158 -0.030063791
-0.022782845 0.009709339 -0.029136194 -0.02277915 -0.0104482025 -0.003725854 0.059439953 0.060924333
-0.024597118 0.03385045 -0.0514307 -0.03358837 -0.04659439 -0.034314286 -0.017417958 0.047634006
-0.013249846 -0.059974216 -0.015038432 0.021834604 -0.015709043 -0.002221852 -0.027795367 -0.013878571
-0.0062802183 -0.025009535 -0.04310359 0.028646184 -0.03570632 0.001587985 0.024326818 0.021862382
0.040349428 0.0418488 -0.014391771 -0.016977528 0.027501985 -0.0017910084 0.011631018 0.010096882
-0.0077243587 0.021376193 0.035507474 0.05265204 0.014090942 -0.039631575 0.025318472 -0.058299154
-0.03803241 0.0078009414 -0.0013222543 0.024056653 -0.051323265 0.008225795 0.04639587 0.035168413
0.0014026894 -0.045224093 -0.0075286203 0.02413822 0.04246669 0.033195414 0.014708347 0.046589088
0.0016762362 0.007998205 0.018897079 0.010514647 -0.0050656213 -0.015267351 4.966189e-05 -0.06238181
0.020006312 0.0068880618 -0.048481632 -0.01314795 -0.038435355 0.013455011 0.033672955 0.04640382
-0.027974082 -0.011242118 0.021113178 -0.092453554 -0.050269913 0.0019007055 -0.03476284 0.04250674
0.021268567 -0.014176497 0.02009776 0.0051669474 -0.030289084 0.022099016 -0.0078071966 0.047623333
0.0693462 -0.012313103 -0.008988613 -0.005340721 -0.014648861 -0.0005403966 0.0015789503 -0.013994127
-0.028190445 0.026923597 -0.004022634 -0.01827595 0.013573976 0.0029087625 -0.013498473 0.02605119
0.020923907 -0.03757243 -0.00039877277 0.026947498 -0.009344371 -0.008062171 -0.009489758 0.010283109
-0.024605822 0.00739147 -0.0024708249 -0.013409906 0.0064735673 0.00069458113 -0.05100474 -0.05875979
-0.003918778 -0.035039093 0.0018275207 -0.04339255 -0.022719642 0.010378091 -0.037380587 -0.026714161
-0.02547688 -0.03721023 0.009436037 0.023964748 0.021928724 -0.0018447799 0.043470807 -0.045515437
0.025013035 -0.0064788493 -0.036427893 -0.0013817912 -0.02838204 0.027613992 0.0002474724 0.0137541
-0.025420884 -0.030948231 0.0056766425 -0.050483745 -0.0467611 -0.029847758 0.0030573818 -0.00092702126
-0.035346545 0.028156148 0.032833118 0.007511826 -0.00955914 0.010661064 0.02926997 -0.03220904
-0.021255026 0.027794631 0.015507461 -0.020205105 0.0037951686 -0.029538658 0.0015537641 -0.018153483
0.028188962 0.010214037 0.009239695 0.019012364 -0.06731061 0.015479453 0.020261155 -0.0022104827
0.028952047 0.04002787 0.042338002 -0.0028664074 -0.051058125 -0.05320785 -0.027491922 -0.0028862224
-0.03412559 0.0030941204 0.074276194 -0.037529204 0.03345885 0.024859972 -0.0106333485 0.02870404
4.0357638e-05 -0.015751485 0.02165031 -0.051066525 0.023598194 -0.025986493 -0.05021738 -0.0053418023
-0.05154513 -0.072044864 -0.013010705 -0.058551665 -0.021471621 -0.008284203 -0.0115263825 -0.030844158

bias f4 [64]
00000000: c7c7 ef3c f170 a2bd e5ba 153c 680b 813b
00000010: e039 063d d363 11bc ab73 84bc 4b2e a239
00000020: 2c89 2ebc 78b7 833b 1715 c03c cf30 5bbd
00000030: 5dcf 76bd e58d 85bc b969 29bd c7ee 103d
00000040: 0f3d 72bc 85bc 0ebd 2337 853a c07c aabd
00000050: 4433 6ebd 7757 18bc 8a1f 32bd 4bce 343b
00000060: 05fc 6dbd 3278 24be 19db e0bb d97d d5bc
00000070: d422 87bc d144 84bd bc10 80bd 28e8 a5bc
00000080: 9d3f ae3b 4693 bebc 1d50 df3c 3225 73bb
00000090: 1172 a43b 29c7 4dbd c81f 45bd 402c 2fbd
000000a0: f83f 84bc 8d5a e5bc bc36 80bd cb9a 4bbd
000000b0: aeed 053c 9ebb 9bbc 1cd6 ba3c 78bf a93d
000000c0: e7cf 43bd a122 99bc 614f 403d 1d01 123b
000000d0: 5498 d03c 3721 82bd dfc5 66bc cc88 aebc
000000e0: 007e 10bd 509d 943c 42e8 e03b 33b7 1fbd
000000f0: f790 55bd ce50 84bc d6dd abbb c0f8 f0bb
0.029270066 -0.07931698 0.009138797 0.0039381273 0.032770038 -0.008873898 -0.016168436 0.0003093354
-0.0106528215 0.004019674 0.023447556 -0.053513344 -0.06025635 -0.016303012 -0.04136059 0.035383966
-0.014785065 -0.034847755 0.0010163527 -0.083245754 -0.05815436 -0.009298197 -0.04348711 0.002758878
-0.058101673 -0.16061476 -0.006862056 -0.026060985 -0.0164961 -0.06458438 -0.06253192 -0.020252302
0.005317642 -0.023263585 0.02725988 -0.0037101028 0.0050184806 -0.050238762 -0.048126012 -0.04276681
-0.016143784 -0.02799728 -0.0626044 -0.04970817 0.008174343 -0.019010361 0.022807173 0.08288473
-0.047805693 -0.01869327 0.0469507 0.0022278496 0.02546326 -0.063539915 -0.014085262 -0.021305464
-0.035276413 0.018141419 0.006863625 -0.03899307 -0.052140202 -0.016151812 -0.0052449508 -0.007353872

weight f4 [64]
00000000: d936 853f c73f 873f 99d2 823f 70f8 803f
00000010: c725 833f a3e9 803f c931 803f 1cb4 853f
00000020: f7a7 8a3f 2f67 893f 19bc 7f3f a335 813f
00000030: ee16 853f 7dbb 8a3f e823 813f 6c46 7a3f
00000040: 7a20 7e3f f16b 843f b542 893f f537 823f
00000050: 4c6f 813f b4d6 8b3f bda2 813f 6c20 843f
00000060: 3b62 853f 5622 843f bd92 853f 662b 7d3f
00000070: 6c7c 763f 0367 853f 40ec 813f 9b09 853f
00000080: 24d5 803f d474 823f bab3 7d3f bccf 7b3f
00000090: c760 833f fddb 783f 3b10 893f b565 8a3f
000000a0: 7156 783f b332 7f3f 022a 7b3f c346 823f
000000b0: 860d 863f 1244 833f d14d 7f3f 9ab2 933f
000000c0: 3cde 7c3f 6909 813f 0725 7f3f c81e 863f
000000d0: ddb5 803f df3f 873f 554d 7f3f e988 7a3f
000000e0: 49a9 823f 6684 803f bd21 793f 6216 803f
000000f0: 3cd3 7b3f 6a16 7c3f 2d49 883f b71f 873f
1.0407363 1.0566338 1.0220519 1.0075817 1.0245904 1.00713 1.0015193 1.044559
1.0832509 1.0734614 0.9989639 1.0094494 1.0397623 1.0838467 1.0089083 0.97763705
0.99268305 1.0345441 1.0723482 1.0173327 1.011209 1.0924897 1.0127789 1.0322394
1.0420603 1.0322978 1.0435406 0.98894346 0.962836 1.0422062 1.0150223 1.0393556
1.0065045 1.0191903 0.99102366 0.9836385 1.0263909 0.97210675 1.0708078 1.0812289
0.970069 0.99686736 0.98110974 1.0177845 1.0472877 1.0255148 0.99728113 1.153888
0.987766 1.0080997 0.99665874 1.0478144 1.00555 1.0566367 0.99727374 0.9786516
1.0207912 1.0040405 0.97317106 1.0006831 0.98369193 0.984717 1.0647331 1.0556554

bias f4 [64]
00000000: 9cef 1abd bacc 3fbe dc50 48bc 275b 223e
00000010: ad92 0a3c f6b3 0ebd cc57 e7bd 447b 15bd
00000020: 776a a73c 5020 8b3d 8cbc ebbd dc75 58bd
00000030: a200 91bd b758 b33c 5228 a8bd 7cae ba3b
00000040: 95b2 d9bd 8d6a 00be 0ed6 d83c b000 c9bd
00000050: e263 69bd 2f26 cbbc 29e4 153e cef9 d2bd
00000060: 1589 033d a3c5 08be 07a9 5fbd d79a babd
00000070: 2d4e 64bd b75c 8a3b b0c5 6b3d e420 133e
00000080: 84f0 e63d aeb7 11be c5c8 84bd cbee a63d
00000090: 8c05 07be 1b2d 703d 1d49 e83c 2bfa d93c
000000a0: 564e 803d d9d6 18bc 3a3b 19bd e35f 36be
000000b0: bc8f 1fbc 79aa a23d 3fa7 ab3d 1b06 07bd
000000c0: 1012 6fbd 4ba5 1f3e 058e 133d 1d92 3f3e
000000d0: aa92 823d d2f5 3fbe ed4c 5ebd b533 123e
000000e0: 26c2 a43d 581a aa3d 0a79 663d 680d 35bc
000000f0: ec57 743b ca9b 3d3d 4945 fb3d 5f23 52bd
-0.037826166 -0.1873044 -0.01222631 0.15855084 0.008457822 -0.034839593 -0.11296043 -0.03649451
0.020436509 0.067932725 -0.11510572 -0.052846774 -0.07080199 0.021892888 -0.082108155 0.0056970697
-0.10629765 -0.12540646 0.026469257 -0.09814584 -0.05698002 -0.02479848 0.14637817 -0.10301553
0.032113153 -0.13356642 -0.054604556 -0.091115646 -0.055738617 0.0042224783 0.057561576 0.14368016
0.112763435 -0.14230224 -0.06483606 0.08151015 -0.1318571 0.058636766 0.028355176 0.026608547
0.062649414 -0.009328567 -0.03741 -0.17810015 -0.009738859 0.07942671 0.08381509 -0.032964807
-0.058366835 0.15590398 0.036024112 0.18708082 0.0637563 -0.18746117 -0.05427258 0.14277537
0.080448434 0.08305806 0.056267776 -0.01105056 0.003728385 0.04629115 0.122690745 -0.051303264

running_mean f4 [64]
00000000: 2357 163f efd2 a03f 9441 a53f 8b15 b23f
00000010: 35ef 4a3f 12e1 523e 0af9 383f 1831 893f
00000020: cf60 8b3e 29e0 ed3e b1ce 833f fcfb 323f
00000030: a316 823f 88bb 2b3f 1e32 673f ddf3 213f
00000040: 1dc4 7d3f 533f 6b3f cfba 333e 76c1 003f
00000050: f1ec a73f 0582 4a3f 44ec 483f 04b9 af3e
00000060: 75e1 0f3f 2f79 a33f d0f1 823f cdd5 8a3f
00000070: c4bd 3a3f 992c 3e3f d307 853e 7252 813f
00000080: 33de 423f 9b6c 543f 4f01 c43f dc74 b63f
00000090: 93b1 2a3f 2a03 333f 26d7 b43d c1bb b13f
000000a0: 5185 543f fb22 243f f753 543f 623d 9b3f
000000b0: 9898 523f 50e1 6c3f ff7a 6c3f d133 2c3f
000000c0: ceb0 3c3f fe4d ba3f bf15 a13f 5c83 253f
000000d0: 9475 b43f dc82 7d3f 9e23 923f 9169 3c3f
000000e0: 2fd3 7e3f 85df ba3f dfed 8f3f 5c2e 323f
000000f0: 6835 a63f 019d 5e3f 3bf0 183f da55 2b3f
0.5872671 1.2564372 1.2910638 1.3912824 0.7927125 0.2059367 0.72255003 1.0718107
0.27222297 0.46460083 1.0297452 0.6991575 1.0163158 0.67083025 0.9031085 0.6326273
0.9912737 0.918935 0.1755173 0.502952 1.3119184 0.79104644 0.7848551 0.34320843
0.56203395 1.2771357 1.0230045 1.0846497 0.7294581 0.742868 0.25982532 1.0103285
0.761203 0.8297822 1.5312899 1.4254413 0.66677207 0.699267 0.08830099 1.3885423
0.83015925 0.64115876 0.8294062 1.2128108 0.8226409 0.925313 0.9237518 0.67266566
0.7370728 1.4555051 1.2584761 0.64653563 1.4098382 0.990278 1.141712 0.7359858
0.9954099 1.4599463 1.1244467 0.6960199 1.2985048 0.8695832 0.5974156 0.66927874

running_var f4 [64]
00000000: 31d2 bd3e 2613 c140 4297 4340 5f6f 9140
00000010: 4d69 5d3f e1b1 ee3e 1ffc ea3f 9e73 4740
00000020: a24f 593e e622 173f 1e34 7940 7efb bf3f
00000030: 06cd 2040 4d73 403f 8199 6740 1c5d f83f
00000040: 8deb 8940 ab0a 7340 af07 1c3e 3225 b33f
00000050: afc4 3340 5965 763f 74a0 c53f bbc5 4c3f
00000060: cd18 b33f 34d6 df40 b2c3 ff3f aeb8 4340
00000070: 9648 5b40 5a44 ba3f 7af4 683e 7268 7f40
00000080: c28d 703f f7d0 4540 0cea c140 3937 3640
00000090: 1fa0 863f 17b8 2d40 7e47 a53d 3e2e 6040
000000a0: 0d2e 0240 db61 fd3f f5f6 2b40 df30 ea40
000000b0: be85 3540 fe09 333f 2f0a 9540 4a09 2a3f
000000c0: 8edd 4540 4ca9 3a40 af6a 0b40 97af 7d3f
000000d0: c02e ba3f e6e5 5940 2a97 3540 7349 c13f
000000e0: fafa 3d3f 7967 b03f 8883 a140 38f8 0c40
000000f0: 25c0 6940 86ee e83f 013c 803f 7c9d 123f
0.37074426 6.0335875 3.056107 4.544845 0.864888 0.46620086 1.8358191 3.1164317
0.21221784 0.59037626 3.893806 1.4998624 2.5125136 0.75175935 3.6187441 1.9403415
4.3100038 3.7975261 0.15237306 1.3995726 2.8088796 0.96248394 1.5439591 0.7998921
1.3991944 6.994898 1.9981596 3.058147 3.4263053 1.4552109 0.2274951 3.9907498
0.93966305 3.0908792 6.05982 2.8471205 1.0517615 2.714361 0.08070277 3.5028224
2.0340607 1.9795488 2.686948 7.3184657 2.836288 0.6993712 4.657493 0.66420424
3.0916476 2.916583 2.1783864 0.99096054 1.4545517 3.404657 2.8373513 1.510054
0.74211085 1.3781577 5.047306 2.20265 3.6523526 1.8197792 1.0018312 0.5727155

weight f4 [3, 64, 3, 3]
00000000: 654e e73c 23bc 303c 6e61 863d 05d2 a13c
00000010: f37d 60bd 29ee b0bc 50f5 5cbb 7aef 20bd
00000020: 27a9 b53c d259 eb3d 1fca 6f3d 0693 613d
00000030: 5fe8 cf3b f657 c4bc 0633 d03c dce4 1e3d
00000040: 6291 4d3c 00a8 88bc f733 6bbd c3d4 a8bc
00000050: a9f3 89bd 7232 fa3c e38a 5a3c 12c7 4a3b
00000060: fea8 d63c c8db ccbc c530 cf3b 1c18 6ebd
00000070: 9d11 b9bd f4ec 5fbd 95e8 4a3c c3fa 08bd
00000080: fc5a b73c 4cc1 453c 90c9 403c 0041 f13a
00000090: 2da3 aabc 8a78 17bd 2559 0cbd 40a3 a9bc
000000a0: 20d8 f7bb 9065 a0bc 5063 58bd 3165 f93c
000000b0: e1c5 2abd fdc5 c13b e8c1 9cbc 9e1c 123c
000000c0: a5d9 5abc 7169 b33c 6993 023b 6c80 a8bc
000000d0: dd4e 56bb 1d26 12bd b257 843b 0cd6 40bd
000000e0: 324c b0bc 72b5 693d 449a 12bd bc84 3a3d
000000f0: f096 e43c 17b2 07bc a8ec d83c d71b cdbc
00000100: 50ab 023d 44ff 8a3c 23d7 c2bc 978e 3fbc
00000110: b2c3 623c af67 0ebd 6de5 f93c 22db b4bc
00000120: 0ef2 ee3b dffb a23c 6115 1dbc f1dd aabb
00000130: ad7a 823d 9aa4 923c 656b 36bc 4187 573d
00000140: f96f 0b3d ef3d f7bb 0d1e 21bd 74f2 81ba
00000150: af1c 823d cf78 d93c ba0e aabc 0f80 283d
00000160: d30c 36bd fd8b 6bbc 1aca 893d db2b 443d
00000170: 0156 1d3d 04a0 353d 684d 293d 9c22 44bc
00000180: ae0e 483c 2417 d83c 91af 113b baef f93b
00000190: ef5a 9cbc 52cd 35bd f387 003d 335f ce3c
000001a0: ce3b febc d9d1 9dbb eb68 74bc 18ff 70bd
000001b0: 2675 d63c 55c7 583c 2559 553d f76a c0bc
000001c0: 253d 5dbd 9089 cc3b e9a8 383c c1d3 0dbd
000001d0: b0b2 993b b023 983c f917 7c3d 38c1 9e3b
000001e0: f334 9dbc 2c3d cb3a 8dd3 2c3d dd9c 07bd
000001f0: f13c e53c af3c 38bd 69b6 973c 9694 d83c
00000200: b96a 383d 36bf d7bb 53b6 5f3d 2616 613d
00000210: 529f d6b9 6147 223d 30d3 723d ef87 d63b
00000220: 7a30 8bba c91d 06bd 4a90 06bd 30b8 883c
00000230: 6499 82bc fd28 62bd b4fc 24bb 3fed f9bc
00000240: 652e 843d 8e2f e63c 98b5 283d 19c1 663d
00000250: 1728 2b3d 4acb 0c3d a06c 8b3c 5385 0c3d
00000260: 5f56 543c f099 303c 9dfd 30bc 76cf 083d
00000270: 8217 183d 7379 933b f5d5 893d 5442 67bc
00000280: 1d85 b8bc 5688 fcbc be08 65bb cadb 0e3d
00000290: f9f8 9fbb aaec 483b 885d 383d 2381 6dbc
000002a0: ce43 efbc 6489 713d adde 06bd 432c 923d
000002b0: 7e38 7cbb af5f 18bc 10c9 793d d573 533d
000002c0: b175 e9bc 3c82 263d 0271 7c3d 6199 ddbc
000002d0: c3b6 b2bc 0630 0c3d 2625 0e3d 6bbf 743b
000002e0: 6c9c 34bd 66e0 07ba 22f4 5d3c 6e39 6e3c
000002f0: 6570 1e3c 3dfc 92bc 3ef7 79bc 52d8 283c
00000300: a05a 703d 5d47 163b a2fc 263d 81a6 053d
00000310: febb 3abd 97bf 9e3c 3332 10bd 110b e3bb
00000320: 463a 51bd 035c fd3c ef6e 22bd 83fb 753c
00000330: c08e b5bc 19d9 103d cecc ee3b 5c71 8dbb
00000340: 09bc fb3c 7422 5c3c 0ea7 0e3d 07e2 d33b
00000350: 569f 413d c430 733d 0b69 c33b 636f 633d
00000360: 9b9b 3b3d 45ec c5bc 12d0 e7bb 5adb 7ab9
00000370: 2f2d 4ebc 8025 7d3b 9af4 7f3d 69f0 0e3d
00000380: da09 f53c 9ec5 56bc d29e 4dbd 9caf 1bbd
00000390: 952c 023d f062 523c bf8f 853d e74a b33c
000003a0: 253b 31bc a77e 833c 5474 ea3c ff3a 8cbb
000003b0: 473f a73c ad66 8d3c b931 04bd 9ed5 72bb
000003c0: 40ea 083d fa97 34bd 14a7 2a3d 9977 4abc
000003d0: 709e 84bc 03e9 483d 6c28 333b 0155 34bd
000003e0: 1c34 143d ceb7 5ebc 454d 50bd 742e afbc
000003f0: e109 4d3d 628a d93c 4e37 66bb 4552 733c
0.028235624 0.010787043 0.06561552 0.019753465 -0.054807615 -0.021597939 -0.0033715554 -0.039290883
0.022175385 0.11491741 0.058542367 0.055071853 0.0063448395 -0.023967724 0.025414955 0.038792476
0.012546869 -0.016681671 -0.057422604 -0.020609265 -0.067359276 0.030541632 0.013338777 0.003094141
0.026203629 -0.025007144 0.0063229525 -0.05812846 -0.090365626 -0.054669335 0.012384553 -0.03344227
0.022382252 0.012070011 0.011766806 0.0018406212 -0.020829761 -0.03698019 -0.034264702 -0.020707726
-0.007563606 -0.019579679 -0.052829087 0.03044376 -0.04169262 0.0059134946 -0.01913543 0.008917956
-0.013357555 0.021900864 0.001992429 -0.020569049 -0.0032700815 -0.03568088 0.0040387744 -0.04707913
-0.021520708 0.057057805 -0.03579165 0.04553674 0.027904004 -0.008282206 0.026480034 -0.02503769
0.031901658 0.016967423 -0.023784226 -0.011691711 0.013840603 -0.03476685 0.030504907 -0.022077147
0.0072920388 0.019895492 -0.009587617 -0.0052144458 0.06371055 0.017900754 -0.011134003 0.052619223
0.034042332 -0.007545225 -0.0393353 -0.0009914176 0.06353127 0.026546864 -0.020758975 0.04113775
-0.044445824 -0.0143766375 0.06728001 0.047893386 0.038412098 0.044342056 0.041333586 -0.011971142
0.012210531 0.026378222 0.002222989 0.0076274546 -0.01908633 -0.04438526 0.03137965 0.025191879
-0.031034376 -0.0048162756 -0.0149175925 -0.058837026 0.026178908 0.013231118 0.052086968 -0.023488505
-0.05401339 0.0062419847 0.01127074 -0.034625772 0.0046904907 0.018571705 0.0615463 0.004844811
-0.019190287 0.0015505902 0.042193938 -0.03310858 0.02798316 -0.044979747 0.018519597 0.026438039
0.045023654 -0.0065840734 0.054617237 0.054952763 -0.00040935964 0.039618853 0.059283435 0.0065469663
-0.0010619306 -0.03274325 -0.03285245 0.01668939 -0.015942283 -0.05521487 -0.0025175037 -0.030508636
0.064541616 0.028098848 0.041188806 0.056336496 0.04178628 0.03437356 0.01701957 0.034306835
0.012960046 0.010778889 -0.010802654 0.033400975 0.037131794 0.004500562 0.06730262 -0.014114935
-0.02252441 -0.030826729 -0.0034947838 0.034877576 -0.004881975 0.003065864 0.045011073 -0.014496121
-0.029207136 0.058968917 -0.032927204 0.071373485 -0.003848582 -0.0093001565 0.060982764 0.051624138
-0.028498502 0.040651545 0.06163121 -0.027050676 -0.021815663 0.034225486 0.034703396 0.003734554
-0.044094488 -0.0005183279 0.013546975 0.0145400595 0.009670352 -0.017942542 -0.015256701 0.010305481
0.058680177 0.002293072 0.040768273 0.032629494 -0.04558944 0.019378467 -0.035204124 -0.0069288095
-0.051080965 0.030927664 -0.039656576 0.015013578 -0.022162795 0.03536329 0.007287598 -0.004316492
0.03072931 0.013435949 0.034827285 0.0064661535 0.047271095 0.05937268 0.00596345 0.05552615
0.045802694 -0.024160514 -0.0070743645 -0.00023923573 -0.012584015 0.0038627088 0.06248913 0.03489724
0.029911924 -0.013108639 -0.05020029 -0.03800927 0.031780798 0.012840971 0.06521558 0.021886302
-0.010817324 0.016051603 0.028619923 -0.004279494 0.020415915 0.017260874 -0.03227398 -0.0037053595
0.033426523 -0.04409025 0.041663244 -0.012357616 -0.01618883 0.049050342 0.0027337326 -0.04402638
0.036182508 -0.013593627 -0.05085494 -0.021384455 0.05005825 0.026555244 -0.003512818 0.014851158

bias f4 [3]
00000000: 29f2 abbd 85b5 d63d adab aebd
-0.08395798 0.10483841 -0.08528838

_v f4 [1, 1, 16, 16]
00000000: bc66 d33e 7462 4c3e 7853 043f ee73 033f
00000010: 56a8 f93e b8db cb3e 283a 513e a84d 593e
00000020: 0436 303e 5f1b 2f3f 3c3f 113f 92e7 aa3e
00000030: f83e d83d bbf2 713f fc1e a73e e89e 1c3f
00000040: b66b 263f acbc 103f 747e 873e 4497 213f
00000050: 8e1a 0c3f a837 123e cbca 513f 0002 1b3b
00000060: afb2 513f 2d8e 713f ac41 793f b48f 5e3f
00000070: 60f4 043d 70a0 323f 9702 083f 895f 3d3f
00000080: 0ef1 473f 0d80 5d3f 131a 4a3f 35a7 443f
00000090: 65ec 683f 2cd8 7f3e 7450 a73e 688f 9c3e
000000a0: 9289 b43e d8fe 063e c02d 433e 7bc0 5b3f
000000b0: cffb 2a3f bb7e 743f 9031 773d 2e54 e43e
000000c0: 68f4 053f 40a0 193e 244c 453e 98c4 c63d
000000d0: 50b9 113e 8eac e93e eb12 643f 8ca5 513f
000000e0: 634a 543f 174d 263f fec6 883e 2438 653e
000000f0: ccb3 4c3e e308 5f3f cf63 353f 5ead a03e
00000100: bb9a 0d3f efac 613f 57a2 123f c8bc 333e
00000110: e538 1a3f 9c32 443e cc3b d93e 16b0 733f
00000120: b750 263f d6cc e83e 0ade 973e 9f7c 7b3f
00000130: 4a6a 343f acb6 8b3e 722c e73e 6bad 1c3f
00000140: 188e b23e 9868 343e 54ac be3e 008d 4c3f
00000150: 48b8 2e3e 6e40 c63e 5931 5f3f 5cd3 663f
00000160: 293b 513f 62e2 e83e 195f 003f 64b9 333e
00000170: 76d9 8f3e cc34 fc3e 6096 983d 20f3 2c3d
00000180: d811 3f3e f88a ea3e df3e 4e3f 7845 2c3e
00000190: 269e 273f 282e df3e 7f71 3f3f ce2e dc3e
000001a0: f887 313f ee63 433f 742a 7c3f 0487 593f
000001b0: e91c 193f 9644 7f3f 64e0 7f3f fa85 113f
000001c0: 75a9 643f e012 a93e 4f9b 4c3f a2bc ee3e
000001d0: e0ad ea3c 498a 083f 5075 053f b17f 7b3f
000001e0: 5097 933d e0b9 523d 9a48 cb3e 7cfb 113f
000001f0: ff8a 233f 2e24 0e3f 8644 3c3f 1641 233f
00000200: ef4a 0b3f 1c6d ab3e f6c1 9f3e d0df 633f
00000210: 38c3 653e 9a7c 333f 0443 de3e 66b1 d33e
00000220: 463f a23e 90de 793d 00eb 2c3c ecea f53e
00000230: 0006 f53b fc2b 0c3f e81c 2f3e 681c ec3d
00000240: 08fd 643f f0dd 3b3e 5874 cc3e 10d1 ab3d
00000250: 946f c03e 1834 bc3e 3fa2 663f 17f8 2f3f
00000260: d4c0 b03e 006c 163f ea06 a63e dd06 5f3f
00000270: 0eb3 973e 6a6c 253f a338 3d3f ac62 ca3e
00000280: 5049 543e ced4 863e 8a30 c33e 15ff 593f
00000290: e18b 1d3f 18bd 5e3f 407b 053c 4071 ef3d
000002a0: c9ad 243f 128e 513f fd4b 613f e8e4 783e
000002b0: ef59 573f 38b1 e83d a01d 2d3d 6a24 e93e
000002c0: c082 3c3e 004f 453d 67b7 4b3f 50e7 433d
000002d0: fe5a 803e fd07 713f fc8b b53e 945c 5f3e
000002e0: 58c8 873e 88d0 dc3d c05d 743c 2a49 853e
000002f0: 8171 3b3f 7d2a 793f 369c 293f 7ae3 f63e
00000300: 3ef7 f73e dc99 413e beb4 103f 604e 443f
00000310: e8ef 613e 9ad5 cd3e 1fde 0d3f 44d7 df3e
00000320: 62eb e53e 6aba 463f dd93 213f 2668 183f
00000330: 4600 cc3e 468f d33e c741 043f eb9f 233f
00000340: a6a8 833e 0075 993e da2a f83e be5e 8f3e
00000350: 094e 793f f6f0 f33e 4cd1 203f 104d 943e
00000360: 3eb3 303f 92f0 6e3f d97a 7b3f 6e33 853e
00000370: e58f 213f c612 063f 771c 743f 14f8 d93e
00000380: 9af2 693f b6ef 273f b881 bc3d bc59 943e
00000390: 2379 4a3f 6787 0b3f a0aa 513e 209b ff3d
000003a0: 41d2 673f 6096 193e c323 583f 487b e23e
000003b0: 4a7f 7c3f bacc 533f a3d0 7f3f 1cbe 003f
000003c0: e065 403d acf6 1e3f 40fb 7a3f b1b9 103f
000003d0: ba51 563f 40fe 0a3f 3e2f a03e 4ecd fe3e
000003e0: 583d f93e a5ab 553f cdf5 333f 5ee9 a93e
000003f0: 5ea5 833e 5fe1 543f d23a 073f c124 433f
0.41289318 0.19959432 0.51689863 0.5134877 0.48761243 0.3981607 0.20432341 0.2122103
0.17208105 0.6840114 0.56737113 0.333798 0.10558885 0.94511 0.32640827 0.6117997
0.65008104 0.5653789 0.26463664 0.6312144 0.5472802 0.14279044 0.8195006 0.0023652315
0.81913275 0.9435757 0.9736583 0.86938024 0.032459617 0.6977606 0.5312895 0.739739
0.78102195 0.86523515 0.78946036 0.7681764 0.9098571 0.24984807 0.32678568 0.3057816
0.35261208 0.13183153 0.19060421 0.85840577 0.6679048 0.95505875 0.06035 0.44595474
0.5232606 0.15002537 0.19267327 0.09705466 0.14230847 0.4563946 0.89091367 0.8189323
0.82926005 0.6496138 0.2671432 0.22384697 0.19990462 0.87122935 0.7085542 0.3138227
0.55314225 0.881545 0.5727896 0.17552483 0.60243064 0.19159931 0.42428434 0.9519056
0.6496691 0.45468777 0.2966159 0.9823703 0.70474684 0.27287805 0.45151097 0.61202115
0.34874034 0.17618024 0.3724085 0.7990265 0.17062485 0.3872103 0.87184674 0.9016626
0.81730896 0.45485216 0.5014511 0.1755119 0.28095597 0.4925903 0.07450557 0.04222405
0.1865915 0.4580915 0.80564684 0.16823375 0.6547569 0.43589902 0.74782556 0.4300446
0.69348097 0.76324356 0.9850228 0.8497164 0.5980974 0.9971403 0.9995177 0.56845057
0.8932107 0.33022213 0.7992448 0.4662829 0.028647363 0.53336006 0.5213213 0.98241717
0.07206595 0.051446795 0.39703828 0.5702436 0.63883966 0.55523956 0.7354206 0.6377119
0.54411215 0.3348168 0.31202668 0.89013386 0.22437751 0.70112 0.43410504 0.41346282
0.316889 0.061003268 0.010554075 0.48030794 0.007477522 0.54754615 0.1710087 0.115288556
0.89448595 0.18346381 0.39932513 0.08389485 0.37585127 0.36758494 0.9009132 0.6873793
0.34522116 0.58758545 0.3242715 0.8711985 0.29628795 0.6461855 0.73914546 0.39528406
0.20731091 0.26334232 0.3812297 0.8515485 0.61541563 0.87007284 0.008147061 0.116915226
0.64327675 0.8185741 0.88006574 0.24306071 0.841216 0.11361927 0.04226458 0.45535594
0.18409252 0.048171043 0.79576725 0.04782802 0.25069422 0.94152814 0.35458362 0.2181266
0.26520038 0.10781962 0.01491493 0.26032382 0.7322007 0.97330457 0.66253984 0.48220426
0.48430818 0.18906349 0.5652579 0.7668209 0.22064173 0.40202028 0.55417055 0.43718922
0.44906145 0.77628195 0.63116246 0.5953392 0.3984396 0.41320246 0.5166287 0.6391589
0.25714606 0.29972076 0.48470193 0.2800197 0.973847 0.47644776 0.6281936 0.28965044
0.690235 0.9333583 0.98234326 0.260158 0.6311019 0.52372396 0.95355934 0.4257208
0.91385806 0.65600145 0.092044294 0.28974712 0.7909109 0.5450348 0.20475245 0.124807596
0.90555197 0.1499877 0.8442957 0.4423468 0.9863173 0.8273426 0.9992773 0.50290084
0.046972156 0.6209514 0.9803963 0.5653334 0.83718455 0.54294205 0.31286043 0.4976601
0.48679614 0.83465034 0.7029694 0.33185858 0.25712103 0.8315639 0.5282413 0.76227957

_v f4 [1, 4, 16, 16]
00000000: 0bfc 1e3f 14c8 0a3f 83b3 7f3f 6081 1d3f
00000010: 80a0 3d3e 00a8 5e3c 6bea 4a3f f274 fa3e
00000020: c8f0 1b3e c040 843d bc14 483f 186e 7d3f
00000030: 21ec 6a3f 7f9b 613f 4054 6d3f c579 213f
00000040: d881 c53e d75d 153f 0e31 9f3e 53b0 163f
00000050: 8d34 6a3f 83c5 763f d6b3 1c3f 8797 563f
00000060: d45f 943e 73ff 4b3f 90b1 ba3d 00fb b53b
00000070: 48d5 983d d532 013f 828d f13e 9006 313f
00000080: 7938 693f d8e5 c33d 4cf5 0f3f 4302 6d3f
00000090: b050 413d 5364 583f b412 1c3e 389b 453e
000000a0: d851 f93d 5bc7 163f 80e3 983d b04f 3a3f
000000b0: f48d 193f 3b95 463f b93a 463f cac9 013f
000000c0: 0478 0f3f 9cb2 3a3f 6322 773f 2610 6d3f
000000d0: 5ad9 963e fa8a 693f 3ab6 203f 4c5d 5f3f
000000e0: 0d09 2d3f 769c 143f 173c 043f 61f3 713f
000000f0: a0d7 f33d e03d 2d3d 3280 253f b098 723e
00000100: 60cd 123f 70be ba3e fc5f 1f3f 4682 af3e
00000110: 80c6 853d b0fd 9c3e 0042 2d3c 80ff 0f3f
00000120: f934 003f de3b 333f 4a28 833e cdcf 403f
00000130: 64dc 113f 88b2 ca3e 8d86 723f 4b9c 7c3f
00000140: a15e 423f 5817 6f3f 01e0 293f e01f d33d
00000150: 6acc ab3e 988c 0a3e a8b2 583f 849d 773f
00000160: 9ff7 2d3f 5ea5 a23e 5df0 0d3f 5a71 ab3e
00000170: 7cfb c83e 4e79 433f 1e9b fb3e 52dd 6e3f
00000180: f43e 183e d5f4 3e3f 4e92 613f 06b3 3a3f
00000190: 829b 4b3f 0dbf 113f 1cb0 773e 5edf 373f
000001a0: bc79 8f3e 72d6 cb3e a002 9f3e 6cbc 683e
000001b0: 1298 833e 9029 3e3f dd10 673f 7c3e 963e
000001c0: 0ead 2b3f bce6 0d3e b617 263f c06b 6f3e
000001d0: 0827 9b3d abbe 793f e4b8 913e f867 553e
000001e0: 9480 5f3e 4e9a 0a3f 085b da3d 69cf 5c3f
000001f0: 78f9 263f e636 ec3e 02f2 f33e 0b66 1d3f
00000200: e08a 803e 0178 3f3f 487e 643f 91ab 783f
00000210: 60f7 e73e a446 293e a02a ac3e ce32 823e
00000220: 0072 973e a658 e93e 505d c33d 9857 413e
00000230: ae14 993e 685a 033e 606b 6c3e a283 4d3f
00000240: 249b d23e 5276 1e3f d275 5b3f 0e47 cd3e
00000250: d098 1e3d bc3c 6d3f b11f 193f 3a6d d03e
00000260: f03f 833e 1adf 043f b029 663d 5ec5 6a3f
00000270: a40c 533e 6a36 b63e f542 663f fc97 cf3e
00000280: 0ccb 433e 60f8 073f a9fe 0c3f 3c53 f53e
00000290: 0219 4c3f c082 263c e688 d93e 1065 483d
000002a0: 30ed 293e b050 d93d 7009 0e3d c6c5 223f
000002b0: dbf3 583f 5969 043f 10dd 2b3d 7ee7 a93e
000002c0: 6f36 6e3f ccb1 a23e ae82 493f e897 e53e
000002d0: 407b e63c d49c 7e3f 27fb 253f 1699 af3e
000002e0: 2192 353f e74a 603f 18bf 5c3f 8a2b 803e
000002f0: dff5 053f 4aec ef3e acdc 043e b171 4c3f
00000300: 9f3f 493f 463b 2b3f 0b6d 413f 492c 123f
00000310: 450a 343f 3828 cd3d 09a7 153f 00a2 373e
00000320: 6a5d bc3e 5eef 293f 10f5 2c3e 875f 103f
00000330: c002 e83d 00d0 aa3e fec6 a53e 43ab 0b3f
00000340: aedf ca3e 1404 113e 4aff f83e 21a4 0b3f
00000350: 1527 643f b000 753d a49e 033e 40a2 433f
00000360: b10a 5f3f bed3 be3e e063 b93d f8cb f43e
00000370: 52fb 493f 8fbe 0d3f f6f6 ba3e d048 d13e
00000380: 416e 7b3f bafd 2a3f c25e dd3e f4ab 0c3f
00000390: b8b3 683e 879b 4e3f 3a08 863e d453 bc3e
000003a0: 1dd4 053f 7ab3 ba3e d824 6a3e 907c cb3d
000003b0: 5269 e93e bcd9 503e 10de 173e 1656 5b3f
000003c0: 7e5d be3e 9d2f 2c3f 4b61 2e3f e571 153f
000003d0: cac6 b53e 4455 423f 80cc f03e 6677 003f
000003e0: 9f06 783f 847a 513e c2f0 763f 8d5a 163f
000003f0: 8590 433f f067 973e e806 f93e a02c df3c
0.6210334 0.54211545 0.9988329 0.61525536 0.18518257 0.013589859 0.79263943 0.48917347
0.1522857 0.064576626 0.7815664 0.98996115 0.91766554 0.88127893 0.9270668 0.6307643
0.38575625 0.58346313 0.31092113 0.588628 0.91486436 0.9639513 0.6121191 0.8382496
0.2897936 0.7968666 0.091158986 0.005553603 0.07462555 0.5046819 0.47178274 0.6915064
0.91101795 0.095653236 0.5623367 0.92581576 0.04719609 0.8452808 0.1524151 0.19297493
0.121738136 0.5889794 0.07465267 0.72777843 0.5998223 0.7757146 0.77433354 0.5069853
0.56042504 0.72928786 0.96536845 0.92602766 0.294627 0.91227686 0.62778056 0.87251735
0.67591935 0.5805124 0.5165419 0.9451199 0.119063616 0.042295337 0.64648736 0.23691058
0.5734463 0.36473417 0.62255836 0.34279078 0.065320015 0.30662298 0.010574818 0.5624924
0.5008083 0.70013225 0.25616676 0.7531708 0.56976914 0.39589334 0.9473656 0.98675984
0.7592564 0.93394995 0.6635743 0.10308814 0.33554393 0.13530195 0.8464761 0.96724725
0.67955965 0.3176679 0.5544489 0.33484918 0.39254367 0.7635697 0.49141783 0.9330646
0.14867765 0.74592334 0.8811387 0.7292942 0.7953416 0.56932145 0.24188274 0.71825206
0.28022563 0.39812046 0.3105669 0.22728127 0.25701958 0.7428217 0.90260106 0.29344547
0.67060935 0.1385755 0.6487993 0.23380947 0.07575804 0.9755656 0.28461373 0.20840442
0.21826392 0.541417 0.10661894 0.8625398 0.6522441 0.46135634 0.47645575 0.6148383
0.25105953 0.74792486 0.8925519 0.9713679 0.4530592 0.16530854 0.3362627 0.25429386
0.29579163 0.45575446 0.09539282 0.1888107 0.2989859 0.12827456 0.23087835 0.8027898
0.41133988 0.6189929 0.85726655 0.40093273 0.038719952 0.926708 0.5981398 0.40708333
0.25634718 0.51902926 0.0561921 0.9170741 0.20610291 0.3558839 0.8994592 0.40545642
0.19120425 0.53113365 0.5507608 0.47915065 0.7972566 0.010163009 0.42487258 0.048924506
0.16594386 0.10611093 0.03467697 0.6358303 0.84747094 0.5172325 0.04195887 0.33184427
0.9305181 0.31776273 0.78715026 0.44842458 0.028134942 0.9945805 0.64836353 0.34296483
0.709261 0.8761429 0.86229086 0.25033218 0.52328295 0.46859962 0.12974805 0.7986098
0.78612703 0.6688732 0.7555701 0.57098824 0.7032817 0.10017437 0.58458 0.17932892
0.3679002 0.6638087 0.16890359 0.56395763 0.113286495 0.33361816 0.32378381 0.545582
0.3962378 0.14161712 0.4863227 0.54547316 0.89122134 0.05981511 0.12853485 0.7641945
0.8712569 0.3727092 0.09052253 0.47811866 0.7889911 0.55368894 0.3651654 0.40875864
0.9821511 0.66793406 0.43236357 0.5494988 0.22724807 0.80706066 0.2617815 0.36782706
0.52276784 0.36465055 0.22865617 0.09935868 0.45588166 0.20395559 0.14830804 0.8567823
0.37180704 0.6726015 0.6811721 0.58376914 0.35503227 0.75911355 0.4703102 0.5018219
0.96885103 0.20456892 0.9646112 0.5873192 0.76392394 0.29571486 0.48638082 0.027242959
