models/gen_1.pth (torch, 582169 bytes, 24 tensors)

weight f4 [64, 4, 3, 3]
000000 b6 7c ae 3c a8 92 0e bc d1 61 26 bd 1b 8d 82 3c
       0.021299701 -0.008701958 -0.04062063 0.015936425
000010 3a 9b e4 3c 8a c9 2d 3d 03 94 f9 bc 4a f0 1e bd
       0.027906049 0.04242853 -0.030466085 -0.038803376
000020 93 a3 57 bd d7 3c 86 bd 0c 87 16 bd fb 0d 2a 3d
       -0.05264623 -0.06554573 -0.036749884 0.04151724
000030 e1 11 73 bd 59 7d 8b 3b 57 c3 25 be 52 6f 01 bb
       -0.059343223 0.004256886 -0.16187797 -0.001975019
000040 01 5a a8 3d bb 15 f9 3c f2 9c c5 bc 0d e1 e3 3c
       0.08220292 0.03040587 -0.024122689 0.027817274
000050 30 28 26 bd 84 5f 72 3d f2 5d 0c 3e b1 7d 70 3d
       -0.04056567 0.059173122 0.13707712 0.05871362
000060 ca 09 19 3e 74 e9 fc bd 2c e6 4d 3c 5e 4b 15 3e
       0.1494514 -0.12349215 0.012567084 0.14579532
000070 b8 64 24 3e 9f 47 ee 3d 9f 39 3b be 9f 46 07 3d
       0.16054046 0.116347544 -0.182837 0.033026334
000080 e5 9e 13 be 96 61 15 be fa d4 88 bd 8f fa de bd
       -0.14416082 -0.14588007 -0.06681247 -0.10887634
000090 09 31 ec 3c 70 1e ed bc 6d fa 14 bd 78 3d 0f 3d
       0.028831976 -0.028945178 -0.036371637 0.03497073
0000a0 9f ec 78 bc 27 7a de bd a4 f2 b0 3c aa b6 ce 3d
       -0.015193134 -0.108631425 0.021600075 0.10093434
0000b0 7f 0c af 3c d0 c1 04 3e 4a 29 72 3d 7c c7 4b 3d
       0.021368263 0.12964559 0.059121408 0.04975079
0000c0 85 4b 18 be a3 99 d7 3d 93 9f 90 bc c2 5b 99 3d
       -0.14872558 0.10527351 -0.017654216 0.074882045
0000d0 7d 74 ec 3d be 74 1b be e7 0c fc 3d b3 62 1e 3d
       0.11545656 -0.15181252 0.123071484 0.038668346
0000e0 c5 69 05 3e fe fc 26 3e 12 47 e7 bc 75 47 f4 3d
       0.13028629 0.16307446 -0.028232131 0.11927692
0000f0 ed 6d a2 bd 10 0a dc bd 15 fc e4 bd 19 31 91 bd
       -0.07931123 -0.10744107 -0.11180893 -0.07089443
000100 11 ea d1 bd 10 17 46 3e be 08 ba 3d 87 db 64 3d
       -0.10249723 0.19344735 0.09083699 0.05587342
000110 b4 67 ec 3d 7f 28 78 bc 0e 94 04 3e 6c 89 f9 bd
       0.11543217 -0.015146374 0.12947103 -0.12184414
000120 e2 3e 9c bc 5f 57 45 bd 9a 93 cc 3d e2 1e 74 3d
       -0.019072954 -0.048179027 0.0998909 0.059599765
000130 db a9 a8 bd 60 c2 36 3d 95 bf 2f bd 4a cc db 3d
       -0.08235522 0.044618964 -0.042907316 0.107323244
000140 d3 30 ab bc 57 00 aa 3d 33 f5 e2 bd e8 4f a9 bc
       -0.020897305 0.08300846 -0.11081924 -0.020667985
000150 a6 9e b3 3d f6 bb 84 bd 4d e1 58 bc c1 5f 91 3d
       0.08770494 -0.06481163 -0.01323731 0.07098342
000160 b5 f1 0b be 10 1e 18 bc c8 01 d5 3d 6d 52 02 be
       -0.13666423 -0.009284511 0.1040073 -0.12726755
000170 37 d5 f5 3d b0 5e 19 3e af 93 0d 3e 7d 41 25 be
       0.12003558 0.14977527 0.13825868 -0.16138263
000180 04 25 95 3d b7 43 a7 3d d6 a4 42 be fc 0d 7d 3a
       0.07282451 0.081672125 -0.19008192 0.0009653268
000190 14 bc b3 bc af ef bc bd b1 fe 15 bd c2 d1 f7 3d
       -0.021940269 -0.092254035 -0.036619846 0.12100555
0001a0 a1 02 0d be f0 e4 3a 3e ea 11 32 3d b7 fa bd 3d
       -0.13770534 0.18251395 0.043474115 0.09276336
0001b0 10 4c 8e 3d 05 93 ae bd ec 79 f5 bd bd 36 a3 bd
       0.069481015 -0.085241355 -0.119861454 -0.07969425
0001c0 6f f7 27 bd 6c 6a 13 3d f5 a4 b1 bc 97 0b c4 3c
       -0.041007455 0.035990164 -0.021685103 0.023931308
0001d0 ec 14 0e 3d 66 a1 23 3e 8e a8 e7 bd 04 7a ba 3c
       0.03468792 0.15979537 -0.11311446 0.02276326
0001e0 ca 4e 8d bd b3 50 89 bd 13 42 d7 3d f0 d3 22 3d
       -0.068997934 -0.06704845 0.105106495 0.0397529
0001f0 9a ee 5f 3d 33 54 2d bd dd 8a d7 bd 69 eb 07 3e
       0.054670908 -0.042316627 -0.10524533 0.13273396
000200 63 09 32 be bb 49 12 3d 6c 5b db 3d b0 a1 be bd
       -0.17386393 0.035714846 0.10710797 -0.09308183
000210 1a 83 4b bd d4 db 6d bd da 6e fa 3d 0e 67 7c be
       -0.049685575 -0.058070973 0.122281745 -0.24648687
000220 a7 48 ba bc e0 ee 92 bd 76 27 b1 bd de 43 8f 3d
       -0.022739721 -0.07174468 -0.08650105 0.069953665
000230 e9 b8 54 3b 11 ae 3c 3d 34 c6 be bd c3 eb 9d bd
       0.0032458848 0.04606444 -0.09315148 -0.077109836
000240 b8 f3 e1 bc a9 ca 80 bd 46 a0 08 be c5 28 96 bd
       -0.027582034 -0.06288654 -0.1334239 -0.07331995
000250 57 b8 35 3d 9f d3 cc bd 32 a6 fc 3c 4d 08 d8 bd
       0.044365253 -0.10001301 0.030840967 -0.10548458
000260 75 9b cc 3d 07 18 0c be f3 7c 58 bd 2c 1b 19 be
       0.099905886 -0.1368104 -0.052853536 -0.14951771
000270 7a 74 fd bd 5f f8 6d bc 0f 02 9c 3a 71 99 9a bd
       -0.12375732 -0.014524548 0.0011902469 -0.07548798
000280 c5 f4 99 3d 30 de 21 be 40 45 7e bc ce 2c e4 bd
       0.07517389 -0.15807414 -0.01551944 -0.11141358
000290 d8 00 d8 bd c5 00 da 3d 41 36 00 3e 0e 8a 67 bd
       -0.10547036 0.10644678 0.12520696 -0.056528144
0002a0 c1 02 04 3e 3b a8 bb 3c 69 d0 e4 bc 5f c6 09 3b
       0.12891676 0.022907367 -0.027931409 0.002102278
0002b0 29 da 14 be 6c fc b3 3d 1c 46 00 be 60 26 57 3c
       -0.14536346 0.0878838 -0.12526745 0.013131708
0002c0 7d f0 b2 3d 08 68 d0 bd 37 d5 8b 3d 0a 64 79 3d
       0.08737276 -0.101760924 0.06827777 0.06088642
0002d0 db 57 22 3d 49 86 c4 3d 8c 8a 02 3d a1 61 4d bd
       0.039634567 0.09595925 0.03187041 -0.050141934
0002e0 f5 0c d8 3d 1b 2a cd 3d 7d 06 62 3d 38 d1 c8 3d
       0.10549346 0.100177966 0.05518197 0.0980553
0002f0 15 89 b2 bd fa b2 9d 3d 2d 4c e1 bd c1 22 36 bd
       -0.087175526 0.07700153 -0.110008575 -0.044466738
000300 6c 0f 11 bc 02 4c a5 3d 13 d7 ae 3d ab 9b b9 bd
       -0.0088537745 0.08071138 0.08537116 -0.090628944
000310 40 50 c4 3d f2 fe 70 bd 69 f3 c4 3d c8 bf 8a 3d
       0.09585619 -0.058836885 0.09616739 0.067748606
000320 67 b3 dc 3d 0e 5a c2 3d 74 b4 c9 bb 70 ad c8 3b
       0.10776406 0.09489833 -0.006155545 0.006124191
000330 92 aa ad 3c 79 d1 12 3e 7e 55 33 3d 10 bf fb bb
       0.021199498 0.1433772 0.043782704 -0.0076826885
000340 de 32 36 3e 33 49 84 bd 21 51 08 be 95 5c ba 3d
       0.17792842 -0.06459274 -0.13312198 0.0909969
000350 61 ba a7 bd 27 00 11 3e 80 3a 1e 3e d7 a8 d6 bc
       -0.08189846 0.14160214 0.15452003 -0.026203556
000360 6c e7 04 bd 1f 3b 6f bd 05 5b 2f 3c c2 0f 50 bd
       -0.032447264 -0.05840599 0.010702853 -0.050796278
000370 5d 47 70 3d 15 03 a2 3d f8 75 43 3d 9d 81 82 bd
       0.058661807 0.07910744 0.047719926 -0.06372378
000380 6b ef 50 3d bc a3 70 bd de 90 20 be 54 38 79 3d
       0.051009577 -0.0587499 -0.15680262 0.060844734
000390 09 40 89 bc 2f 6b 81 3d 81 ef b7 3d 84 41 28 be
       -0.016754167 0.06319272 0.089812286 -0.16431242
0003a0 ba 3a 9c bd f1 d6 9f 3c d1 b4 46 3d 69 14 8a 3b
       -0.07628389 0.019511672 0.048512284 0.004213859
0003b0 6b 12 20 3d 9c b1 7b 3d cc e2 2c be ed ef 23 bd
       0.039080065 0.06144868 -0.16883391 -0.040023733
0003c0 96 57 2e bd 19 57 94 3d 68 74 7d bc 82 98 45 3e
       -0.042563997 0.07243175 -0.015469648 0.19296458
0003d0 9d e4 6b 3d 8c f5 93 bd 2d ab a4 3d fb f7 99 3d
       0.05759107 -0.07224569 0.08040462 0.07518002
0003e0 1d 97 fe 3d 9b 42 24 3e 79 91 66 3d cd de 38 3d
       0.12431166 0.16041033 0.056291077 0.045134354
0003f0 1f ea 34 3d df b7 4e bc 3b 80 c5 bd 00 28 59 3d
       0.044168588 -0.0126170805 -0.09643599 0.053016663

bias f4 [64]
000000 8d 6d 21 3e 9e 53 d9 bb 9a ef df 3b 1a bc 35 bc
       0.15764447 -0.0066322824 0.0068339827 -0.01109221
000010 af 65 26 3e cb 35 29 be fb c9 89 bd 60 71 c0 bc
       0.16249727 -0.16524427 -0.06727978 -0.023491561
000020 8d a4 47 be 5d 73 4d 3d 62 26 bf 3d aa b3 d9 3d
       -0.19496365 0.050158847 0.09333493 0.10629971
000030 7a 59 65 bd 98 65 a2 bd 10 af 20 bd dc 01 45 bd
       -0.055993535 -0.07929534 -0.039229453 -0.048097476
000040 53 98 2d bc ac 7a 2f 3e 4b 01 21 bd 0f 0b 35 3e
       -0.010595399 0.1713664 -0.039307874 0.1768
000050 b9 8f 4a bd 90 7f 73 3d 64 14 2a bd 78 3d 05 3e
       -0.04945347 0.059447825 -0.041523352 0.1301173
000060 f2 77 59 3d 79 76 9b bc 63 23 a8 bd 4b 90 b6 bd
       0.053092904 -0.01897739 -0.082098745 -0.089142404
000070 60 81 1f 3e 35 fa 87 bd 82 f1 cc bd 23 c5 8c 3d
       0.15576696 -0.0663952 -0.100070015 0.06873538
000080 20 b1 32 bd 65 55 96 3d 86 3a 23 bd 27 b6 a0 3c
       -0.04362595 0.073405065 -0.039850734 0.019618107
000090 5e 23 17 bd 84 54 b3 3d 32 d0 af 3d ba e1 5c 3d
       -0.036898963 0.087563545 0.08584632 0.053926207
0000a0 1c e8 bd bd 79 ee c4 ba 6a d4 4e bd c2 87 a4 bd
       -0.09272787 -0.0015024684 -0.050495543 -0.08033706
0000b0 38 44 35 3e 87 6e 07 be d9 13 d3 bd b7 6d 79 3c
       0.17701805 -0.13225757 -0.1030652 0.015223912
0000c0 76 4c 8c 3d 69 27 95 3d 98 fb ab 3c ca 41 1c 3e
       0.06850521 0.072829075 0.020993993 0.15259472
0000d0 54 e4 e4 bd 85 df 87 bd 63 30 a0 3b d3 30 7e bd
       -0.11176363 -0.0663443 0.0048885806 -0.06205828
0000e0 70 f5 42 3e 7d 49 04 bd c3 01 58 bc 59 55 54 bc
       0.1903894 -0.032296646 -0.013184014 -0.012959802
0000f0 4b 6a a0 3d ee fc 46 bd ed 8e 12 be c2 1e 1b 3e
       0.07832774 -0.048581056 -0.14312334 0.15148452

weight f4 [64]
000000 10 2f 86 3f df e5 7d 3f a2 12 74 3f 8c 1f 88 3f
       1.0483112 0.9917888 0.9534093 1.0634627
000010 cf 95 79 3f 45 10 77 3f 5b 9b 80 3f a8 12 83 3f
       0.97494215 0.965092 1.0047411 1.0240068
000020 57 5d 77 3f c5 fa 75 3f 64 ec 81 3f d8 ed 7f 3f
       0.966268 0.9608577 1.0150266 0.99972296
000030 94 80 82 3f 36 ac 72 3f f5 8a 7e 3f 26 05 7a 3f
       1.0195489 0.94794023 0.9943078 0.97664106
000040 25 d5 74 3f 64 f5 7b 3f fb 76 81 3f d5 d1 7e 3f
       0.9563773 0.9842131 1.0114435 0.9953893
000050 3c 46 6b 3f 3c 01 80 3f e0 71 74 3f 95 13 75 3f
       0.91904044 1.0000377 0.9548626 0.95733005
000060 55 0e 7a 3f 46 62 80 3f 2a 48 7c 3f a1 b6 83 3f
       0.9767812 1.0029991 0.98547614 1.0290109
000070 72 44 81 3f c0 d4 72 3f b2 42 83 3f 56 01 79 3f
       1.0099013 0.9485588 1.0254729 0.97267663
000080 9c b8 7c 3f 28 70 7f 3f bd 0b 7d 3f 85 0b 73 3f
       0.9871919 0.9978051 0.98846036 0.9493945
000090 98 ae 80 3f d3 3b 82 3f 09 bd 7c 3f e0 46 7d 3f
       1.0053282 1.0174507 0.98725945 0.9893627
0000a0 10 d4 7c 3f bc 29 85 3f 34 da 7f 3f 78 7d 73 3f
       0.9876108 1.0403361 0.99942327 0.95113325
0000b0 d6 98 76 3f b8 80 73 3f e3 0b 7f 3f 29 c9 87 3f
       0.9632696 0.95118284 0.9962751 1.0608264
0000c0 f6 d2 82 3f 24 f0 76 3f 61 64 81 3f a3 22 7a 3f
       1.022063 0.96460176 1.0108758 0.977091
0000d0 ab 38 82 3f a3 5b 79 3f 1e 74 82 3f 89 76 77 3f
       1.0173544 0.9740545 1.0191686 0.96665245
0000e0 3d 3d 75 3f ed 20 7d 3f f6 51 83 3f 39 3f 84 3f
       0.9579657 0.98878366 1.0259387 1.0331794
0000f0 73 bc 7b 3f de b7 81 3f 72 7c 75 3f c7 a8 76 3f
       0.98334426 1.0134237 0.95893013 0.96351284

bias f4 [64]
000000 12 ed 3e be 43 c8 e3 bd 2c 4b 84 3d 79 85 0e be
       -0.18645123 -0.11122181 0.064596504 -0.13918103
000010 ef 3e 02 3e c1 f6 32 be 07 e2 41 bd 93 d0 cd bd
       0.1271932 -0.17476942 -0.047334697 -0.10049548
000020 75 3c 8b bd 8c 76 45 bd 42 f4 9f 3d 5e 40 1f be
       -0.06798641 -0.04820876 0.0781026 -0.15551898
000030 fb 68 9c bd f2 8e 05 be 72 40 b6 bd 59 4a 32 be
       -0.07637211 -0.1304281 -0.08899011 -0.17411174
000040 f2 ef f8 3d 62 51 fa bd 4e 40 64 bd 8b a0 83 be
       0.12155141 -0.12222554 -0.05572539 -0.25708422
000050 a9 c2 e2 bd b9 e6 1d be e5 9b 71 3d 8d 40 cb 3d
       -0.11072285 -0.15420045 0.058986563 0.099244215
000060 2e 9f 44 bd 8a ae 26 be 8f 30 a0 3b ce f9 20 be
       -0.048003368 -0.16277519 0.004888601 -0.15720293
000070 78 02 5c be bc 37 fa bc 39 62 18 be 7c 63 2f 3d
       -0.21485317 -0.030544154 -0.14881219 0.042819485
000080 3e 65 1f be ea c5 e9 bc ad 71 2b be dd cf 9b 3c
       -0.15565965 -0.028536756 -0.16742583 0.019020015
000090 c0 49 64 be 26 a3 7b 3d cd 5a d7 bd a4 8b 21 bd
       -0.22293758 0.061434887 -0.10515366 -0.039439812
0000a0 2d 06 d9 bc b2 9e 8b bd 6b 3a fc bd ab 59 47 be
       -0.026492203 -0.06817378 -0.1231583 -0.194678
0000b0 1a 70 0c be 98 43 d1 bc 5a 58 19 be bd f7 69 bd
       -0.13714638 -0.025544927 -0.1497511 -0.057121027
0000c0 32 66 03 be a8 62 e4 bc 4c 9e b2 bd 7a 8e 1b 3e
       -0.12831953 -0.027879074 -0.08721599 0.15191069
0000d0 ce ca 10 be 37 9e 88 bd 02 13 12 be 83 4d d5 3c
       -0.14139864 -0.06670802 -0.14265063 0.026037937
0000e0 3f 7d d8 3d 71 2a 01 be de 9d 08 be 9b 20 82 bd
       0.10570764 -0.12613846 -0.13341472 -0.06353875
0000f0 99 49 e7 bd 18 f2 e5 ba f8 6f 2e be 57 a8 04 bd
       -0.112933345 -0.0017543463 -0.170349 -0.032387104

running_mean f4 [64]
000000 c8 59 35 3e 06 b9 af 3d 47 ca 40 3d a4 a5 bd 3d
       0.1771003 0.08580212 0.047067907 0.09260109
000010 1d 1a 4e 3e eb bc 39 3d 4c 57 1c 3d 2a 9b c5 3d
       0.20127149 0.04534618 0.03816919 0.09648736
000020 63 31 59 3c bf d2 c9 3d ac 27 bf 3d c3 78 1a 3e
       0.013256404 0.0985465 0.09333739 0.1508513
000030 36 2f 0c 3e 47 89 2f 3d 3a 10 85 3d 3a bc b4 3d
       0.13689885 0.042855527 0.064972356 0.08824964
000040 e5 e7 27 3d c1 b8 21 3e cb 06 62 3d 8c d5 86 3e
       0.040992636 0.15793134 0.05518226 0.26334798
000050 35 96 24 3d 0d 53 f6 3d 7e 2a 70 3d 78 ca 0b 3e
       0.04018231 0.120275594 0.058634274 0.13651454
000060 f6 a6 bf 3d ce 4f 11 3e 5f db 2b 3d 88 c9 eb 3d
       0.09358017 0.141906 0.041957255 0.115130484
000070 d8 0b 8e 3e 87 ae 84 3d f3 c0 3c 3b 67 3e e2 3d
       0.2774341 0.06478601 0.002880153 0.110470586
000080 d5 6f 83 3d ae 78 04 3e 0b 67 da 3d 2c 86 28 3d
       0.06417815 0.1293666 0.10664185 0.04114358
000090 41 d9 1b 3e f7 89 ea 3d 48 ad 08 3e 8e 66 be 3d
       0.15219595 0.11452096 0.13347352 0.092969045
0000a0 85 f6 0b 3c 05 d8 85 3d 26 29 42 3e 69 e7 a6 3c
       0.008542662 0.06535343 0.1896101 0.020374017
0000b0 0f 90 64 3e 48 b5 22 3d e4 8e 81 3d fb b0 1f 3d
       0.22320579 0.039723665 0.06326082 0.03898714
0000c0 2c ae 90 3e 1c ed cd 3d 1a ec 9c 3d 4d 4a 39 3e
       0.28257883 0.10054991 0.0766222 0.1809475
0000d0 1f 86 66 3c af cf 3a 3d cf 6c d7 3d 5c a1 69 3c
       0.014070063 0.04560822 0.105188005 0.0142596625
0000e0 0c ba 3c 3e 9f 89 90 3d 65 2d 0e 3e 63 14 cd 3d
       0.18430346 0.07057499 0.13884504 0.10013654
0000f0 61 b2 57 3e 7c b4 8b 3c 0d 4e 53 3d 6b 7a 32 3e
       0.2106414 0.017053835 0.051588107 0.17429511

running_var f4 [64]
000000 65 0f c6 3b 32 cc be 3c 19 73 da 3b df ce 44 3c
       0.0060443156 0.023290727 0.0066665527 0.012012213
000010 f7 02 f0 3c 97 18 55 3c 6b dd 01 3c 6e 75 a7 3c
       0.029298289 0.013006351 0.007926325 0.020441737
000020 f9 9b 08 3b 46 08 e6 3c df ea 75 3b 75 84 35 3c
       0.002084492 0.028080117 0.0037524027 0.0110789435
000030 a6 75 31 3d c3 3f cb 3b 87 71 8c 3c bc 00 fb 3c
       0.04332509 0.0062026693 0.017143978 0.030639999
000040 fe 06 9b 3b ae 5c d0 3c 8e 38 49 3c 91 ad 1f 3d
       0.004731058 0.025434818 0.01228155 0.038983885
000050 e6 b1 ad 3b fc f6 1d 3d ba 54 2b 3c a0 94 fd 3c
       0.005300748 0.03856562 0.010457212 0.030954659
000060 01 94 b4 3c f5 ef fd 3c 8d c9 d4 3b c9 d3 e7 3c
       0.02204323 0.03099821 0.0064937533 0.02829923
000070 2c da 58 3d 2f 44 9b 3c 7f 40 f5 39 ae d5 77 3c
       0.05294244 0.01895341 0.00046778095 0.015126629
000080 72 d8 86 3c f1 a2 4a 3c 66 2d bc 3c a3 2c 96 3b
       0.016460631 0.01236795 0.022970866 0.004582958
000090 fc 37 1d 3d 71 d4 c4 3b 12 02 4f 3c 47 05 2d 3c
       0.03838347 0.0060067703 0.012634771 0.01056034
0000a0 a3 df 67 3a 67 aa c6 3b 26 cc 80 3d 01 60 3d 3b
       0.0008845275 0.006062794 0.06288938 0.0028896334
0000b0 8d 60 05 3d 92 c4 24 3c 60 25 9a 3c a4 6f 36 3b
       0.03256278 0.010056632 0.01881665 0.002783754
0000c0 c1 36 be 3d 77 dc d6 3b a9 d0 f3 3b fa 4c 9b 3c
       0.09287787 0.006557043 0.0074406457 0.018957604
0000d0 5c ee d8 3a 46 6d 40 3c 6a 6a 65 3c ee e5 03 3b
       0.0016550529 0.011744803 0.014002422 0.0020126062
0000e0 46 98 0a 3d 0c 57 7a 3c 1a bf 06 3d c3 f8 9a 3c
       0.033836626 0.015279543 0.032897092 0.018917447
0000f0 24 ee 42 3d 7e 9a 38 3b 66 9e 1f 3c 56 6a ed 3b
       0.04759039 0.0028168256 0.009742355 0.0072453422

weight f4 [64, 64, 3, 3]
000000 6f d8 40 bd 2a be 18 bd 33 a6 9f bc e0 f6 fa ba
       -0.047081407 -0.03729073 -0.01948843 -0.0019147061
000010 b6 5b 1b bd 8a 7c 5b bd 45 ea c9 bc a8 62 0f 3d
       -0.03792926 -0.053585567 -0.024647841 0.035006195
000020 15 66 53 bd 55 53 5c bc 3a ad a8 bc cf d9 03 3c
       -0.051611025 -0.013447602 -0.020590413 0.008047535
000030 0f 2a df bc f6 8e 1d bc 59 22 5c bd d9 09 74 bc
       -0.027241735 -0.009616604 -0.053743694 -0.014894926
000040 8a 75 4f bd e4 2f 97 3c 06 44 19 bd 47 31 a8 3a
       -0.050649203 0.018455453 -0.037418388 0.0012832069
000050 ec 6b 59 3c 5c 42 d5 bc 05 99 c5 bc 21 8a 86 bb
       0.0132703595 -0.02603262 -0.024120817 -0.0041058217
000060 9d 40 4d bc 7a b6 88 bd 88 0a 2f bd 80 51 48 3a
       -0.012527612 -0.0667543 -0.042734653 0.0007641539
000070 8e c1 d2 3b 5f 3c a6 3c 82 53 b5 bc a9 66 50 3d
       0.006431765 0.020292459 -0.022134546 0.050879154
000080 75 96 f9 bc c1 5c 84 bc 2a 13 4e 3d 0a 1e a4 bc
       -0.030467251 -0.01615751 0.050311245 -0.020033855
000090 08 56 2a 3d 8e 4a 4e bc d0 0d 84 bc 77 13 ac 3c
       0.041585952 -0.012591017 -0.016119868 0.021005375
0000a0 13 6c a7 3a 3d e7 d3 3c 53 d5 39 3c d8 1c 16 bc
       0.0012773297 0.025867099 0.011342364 -0.00916215
0000b0 53 5b cb bb 7c a7 66 bd b7 b2 98 ba 9e 49 8d 3b
       -0.006205955 -0.05631207 -0.0011649941 0.0043117544
0000c0 83 c3 86 bc 22 5c dd 3c 1a dc 54 bd 6b aa 16 bd
       -0.01645065 0.027021471 -0.051967718 -0.036783617
0000d0 62 43 61 bd 02 5a 12 bd da a6 00 bd 47 55 c2 3a
       -0.054995902 -0.03573037 -0.031409122 0.001482644
0000e0 e6 05 33 bd d5 55 29 bd d4 ba 01 bd 1e 8c b5 3c
       -0.043706797 -0.04134162 -0.031672314 0.02216154
0000f0 09 b9 0f bb 4e b2 a0 bc f5 9c 0b bd 72 4e 98 3b
       -0.0021930358 -0.019616272 -0.034085233 0.0046480233
000100 9e 88 07 3b a9 00 8d bc 76 0d 36 bc 14 3f 7f 3d
       0.0020680795 -0.017212229 -0.011111608 0.062316015
000110 ff 87 38 bc d3 84 9d 3c ca 10 e6 3c 89 a3 c3 3c
       -0.011262893 0.019228375 0.028084178 0.02388169
000120 3f fd 80 3c cd 69 7d bb 15 91 2a bd ef 51 16 bd
       0.015745757 -0.0038667799 -0.041642267 -0.03669923
000130 b8 e0 59 bb 4f ef 12 bc 18 31 93 bb a9 f5 55 bc
       -0.0033245515 -0.008968188 -0.0044919364 -0.013059058
000140 aa 1f 8b bc 67 29 b0 bb fe 11 53 3b ff 2f ec 3c
       -0.016982872 -0.0053760293 0.003220677 0.02883148
000150 91 cb fb 3b 0e 57 3a bd 80 72 d4 3c 4b 99 7b bd
       0.007684179 -0.045493178 0.025933504 -0.06142549
000160 c0 bc 46 bd af c5 9e 3b b4 31 82 bc 0c 2c 98 3c
       -0.04851985 0.004845343 -0.01589284 0.01857569
000170 e0 8f 2c bd 97 e8 da bc 71 c5 86 3c 58 53 fe 3b
       -0.042129397 -0.026722236 0.01645157 0.0077614
000180 d9 6f a9 bc cb 3f 39 bd 25 ce 67 3b 52 01 21 3d
       -0.020683216 -0.045226853 0.0035370674 0.0393079
000190 a7 03 52 3d 71 44 03 3d 29 1c 0e 3d de fa 55 3d
       0.051273014 0.032047693 0.034694824 0.0522412
0001a0 ca 22 72 3b 0b 0f 91 3c ff 51 8b 3c b6 b2 04 3c
       0.0036947005 0.017707368 0.017006872 0.008099249
0001b0 7f 37 06 b9 b6 7d 8a bc 85 9b 8d 3b 14 d7 16 bd
       -0.0001279991 -0.016905647 0.004321518 -0.03682621
0001c0 be 67 fd 3c 6a bd 06 3d 52 64 11 bd 53 d2 eb bc
       0.030933257 0.032895483 -0.035496064 -0.028786814
0001d0 d3 d4 22 bd d6 94 ba bb 74 26 e4 bb c7 2e 75 3c
       -0.039753746 -0.005694012 -0.006962592 0.014964766
0001e0 0f fd 9c 3a fd 72 77 bc f9 e9 83 3c 94 04 68 bd
       0.0011977273 -0.015103099 0.016102778 -0.05664499
0001f0 de 40 5f bd 03 da af bb 9e 6d 90 bd 71 ad 0d bc
       -0.05450522 -0.005366565 -0.07052158 -0.008647309
000200 5c 64 5c bc 93 fa 45 bc d7 8c 03 3c 2b fe 08 3c
       -0.013451662 -0.012083667 0.008029184 0.00836138
000210 0b f7 30 bd 72 2b 12 38 37 0c 4d bc dc db 49 3c
       -0.04320435 3.4849574e-05 -0.012515119 0.012320485
000220 92 de 51 3c 48 3b 54 bd 84 df 34 bc 69 d9 ae bc
       0.012809413 -0.051814348 -0.011039618 -0.021343904
000230 db 34 38 bc 8d 5e c2 ba 3d bc 22 bc 84 ca 31 bc
       -0.0112430705 -0.0014829204 -0.009932575 -0.010851506
000240 43 bd b9 bc 52 cd b2 b9 6e 15 8c bb 55 cf 6a 3b
       -0.022673255 -0.0003410378 -0.0042750156 0.0035829146
000250 9f 78 0b bc ee 20 e0 3c f4 3b 11 bb c6 5b 46 3c
       -0.008512645 0.027359452 -0.002216098 0.012106841
000260 27 4c f2 3c 00 36 54 bd ec b9 50 bb 65 3c db 3c
       0.029577328 -0.05180931 -0.00318491 0.026762197
000270 e3 2e 24 bd db 76 d5 bc 6e b9 b3 bc c9 09 cc bc
       -0.040083777 -0.026057651 -0.021939006 -0.02490701
000280 f7 2f 27 bd c0 61 21 bb ce 24 aa bc 96 46 7a bc
       -0.040817227 -0.0024624914 -0.020769503 -0.015275618
000290 b2 aa 6e 3b c0 08 f0 bb e2 7d 34 bd 1d bd 55 bd
       0.003641766 -0.007325262 -0.044065364 -0.052182306
0002a0 b4 dc ca bc 34 6f 40 bd 7b ff 19 bc db 51 fa bc
       -0.024763443 -0.04698105 -0.00939929 -0.03055661
0002b0 fb 75 9d bc 24 64 45 3c 4f d2 a2 bb 9f 43 62 bb
       -0.019221297 0.012047801 -0.0049689184 -0.0034525169
0002c0 d5 fb fd bb 0c 8b a5 bc 53 fc 9e 3c 44 19 ea 3c
       -0.007750968 -0.020207904 0.019407427 0.0285765
0002d0 63 64 7d 3c b9 93 ce bc 58 f3 13 3d ea e4 2a bd
       0.015465829 -0.025216924 0.036120743 -0.041722216
0002e0 a2 6b 7c 3b f5 b3 2f 3b c5 0a f9 bc 97 fa ff bc
       0.0038516303 0.0026810144 -0.030400643 -0.03124742
0002f0 ea 5b e3 bc 14 4e 3b bc b1 d4 35 bd 65 46 82 bc
       -0.027753789 -0.0114321895 -0.04439229 -0.015902707
000300 70 37 1a bd 1e 07 37 bd 28 e5 a4 3b c0 2e 8f bd
       -0.037650526 -0.04468452 0.0050322004 -0.06991339
000310 53 77 8c bd 59 92 23 bd d1 d0 f7 bb de 74 4b bb
       -0.06858697 -0.03993449 -0.0075627347 -0.0031045
000320 7b 46 1d bd 76 3f 04 3d bf a5 28 3d 46 22 bb 3c
       -0.038397294 0.032287084 0.041173693 0.022843491
000330 3f 4b 19 bc d8 d1 03 3b 88 f5 12 3d de c3 4e bd
       -0.009356319 0.002011409 0.035878688 -0.050479762
000340 57 f0 f9 bc 11 c1 e4 3c de 44 3c bc 4c 13 0f bd
       -0.03051011 0.027924092 -0.011491029 -0.034930512
000350 c5 76 0c bb 11 c0 36 bd 08 d0 02 bc ac 39 95 bc
       -0.0021433097 -0.044616763 -0.007984169 -0.018215977
000360 fa 86 3e bb 89 aa cc bb f3 2c f3 bb 5d 11 ab 3b
       -0.0029072152 -0.0062459153 -0.00742113 0.0052205757
000370 ba d6 58 bd 1b 8c 52 3c c7 52 96 bb 5e c1 e2 3b
       -0.052939154 0.012850787 -0.0045875045 0.006920024
000380 95 e0 96 3c b2 03 02 3d 44 07 0a 3d c1 b1 32 bc
       0.018417636 0.031741805 0.033698335 -0.010906638
000390 c2 af c1 bc 0a ee ce bc c1 aa d2 bb 70 1c ed 3b
       -0.023643378 -0.02525999 -0.006429047 0.007236056
0003a0 1b 87 ce bc ce 5c fc 39 a2 a9 69 3d 99 21 4f bd
       -0.025210908 0.0004813433 0.05704654 -0.05056915
0003b0 74 64 94 3c fa fd 5a 3c 4d d1 ef bc 01 4b b8 3b
       0.018114306 0.013366217 -0.029274607 0.0056241755
0003c0 d0 79 ad bc 33 de 1a bd 67 7b 0d bb 1a ce 56 bd
       -0.021176249 -0.037809562 -0.0021588446 -0.052442648
0003d0 20 24 42 3c bd 38 07 bd 4a 7e 0b bd dd d3 6e 3c
       0.011849433 -0.033013094 -0.034055986 0.014576879
0003e0 ed 49 0a bd e2 2c 7e bd 91 ee 58 bc af b2 5f bd
       -0.033761907 -0.062054522 -0.013240472 -0.054613765
0003f0 81 50 53 bc 02 4c d9 bb 51 87 ac bb 2a 05 30 bc
       -0.012897612 -0.0066313753 -0.0052651544 -0.010743419

bias f4 [64]
000000 5b 11 da 3c 93 10 86 bc 5e db 70 3c 3d 30 e6 ba
       0.026619604 -0.016365325 0.014700739 -0.0017561984
000010 60 19 da 3c d3 13 00 bd 67 8c 07 3d 66 68 d9 bc
       0.026623428 -0.031268906 0.033092882 -0.026539039
000020 15 ee 06 3d 29 b2 5e 3c 67 62 0b 3d 6a 90 07 39
       0.032941896 0.013592281 0.03402939 0.00012928402
000030 fb 06 03 bd 95 0b bf bd 06 ed 42 bc 83 d2 9c 3c
       -0.03198908 -0.09328381 -0.011897331 0.019143349
000040 dc e1 34 3c d9 fe 1b bd f6 3a 28 bb 2b b3 27 bd
       0.011040177 -0.03808484 -0.002566991 -0.040942352
000050 3b 5f 32 bd ed 85 60 bc 8c 78 26 bd 11 a6 ae 3c
       -0.04354785 -0.013703805 -0.040642306 0.021319421
000060 23 63 bf bc 15 3c fd bd c5 d7 a3 3b c9 65 0b 3c
       -0.023362702 -0.12364975 0.005000087 0.008508154
000070 7b 0a b9 3c dd 28 3e bd 0a b7 70 bd 64 8d 2d ba
       0.022588005 -0.04642569 -0.05876831 -0.0006620495
000080 81 70 5b bc be 3a a3 3b 2b 21 a7 3d d6 f4 84 3c
       -0.013393522 0.004981368 0.08160623 0.016230028
000090 26 90 5c bd 7c 18 3d bd 06 f4 1d 3d 97 3c 47 bd
       -0.05384841 -0.04616593 0.038562797 -0.048641767
0000a0 08 79 75 3b c3 51 d9 bc 7d 4d 3e bd 14 c8 f6 3c
       0.0037456173 -0.026528245 -0.046460617 0.030124702
0000b0 32 06 ad 3c 7f cd c6 bc 84 4d bf 3c 21 dd 2d 3d
       0.021121118 -0.02426791 0.023352392 0.042447213
0000c0 57 c6 3e bd 3b 9d 06 bd 5c 27 ca 3c 58 bf 18 3b
       -0.04657587 -0.03286479 0.024676971 0.002330741
0000d0 f3 e8 44 3c 7a e0 cf bd 4e 63 79 b9 ae 89 6c bc
       0.01201843 -0.101502374 -0.00023783484 -0.014437122
0000e0 72 da c7 3c c4 03 e6 3c 07 a2 9e bb 05 be 9b bc
       0.024396155 0.028077967 -0.0048410925 -0.019011507
0000f0 1a ef ce bd 69 75 39 bc 37 5b 1e 3c 1c 14 45 bc
       -0.10104199 -0.011319497 0.009665302 -0.01202872

weight f4 [64]
000000 e5 9f 81 3f 48 95 86 3f 2e 99 85 3f 26 46 80 3f
       1.0126921 1.0514307 1.0437372 1.0021408
000010 c1 c3 7e 3f 56 a3 82 3f 59 00 88 3f 37 aa 85 3f
       0.99517447 1.0206096 1.0625106 1.044257
000020 b4 ac 8f 3f d7 b9 89 3f 0b 78 7e 3f 7c e0 81 3f
       1.122458 1.0759839 0.9940192 1.0146632
000030 08 54 84 3f 7a 2f 90 3f 3a 3c 7e 3f f7 19 7c 3f
       1.0338144 1.1264489 0.9931065 0.9847712
000040 63 d3 80 3f a4 03 85 3f 74 3f 7a 3f de 7e 81 3f
       1.006451 1.0391736 0.9775307 1.0116842
000050 9e 02 7f 3f db 3e 88 3f 5d 9d 80 3f 96 4c 81 3f
       0.9961337 1.0644182 1.0048023 1.0101497
000060 fd 25 83 3f 07 89 83 3f b5 4a 87 3f a2 e3 80 3f
       1.0245968 1.0276192 1.0569674 1.0069468
000070 ea a9 78 3f 64 b6 82 3f 1a 71 83 3f e5 e4 82 3f
       0.9713427 1.0211911 1.0268891 1.0226103
000080 3d d2 84 3f b2 d7 83 3f 56 88 85 3f 1b fc 7e 3f
       1.037666 1.03002 1.0432231 0.9960343
000090 d5 ab 83 3f 2f 5b 81 3f 84 b6 80 3f fa 56 88 3f
       1.0286814 1.0105952 1.0055699 1.0651543
0000a0 63 e0 80 3f 3d ab 83 3f 93 19 81 3f 8b 4e 7c 3f
       1.0068477 1.0286633 1.008593 0.9855735
0000b0 25 a4 82 3f e6 ac 83 3f b5 23 7e 3f fa d4 90 3f
       1.0206343 1.028714 0.99273235 1.1314995
0000c0 8d 64 7d 3f f7 ef 81 3f 60 ae 80 3f 7f 00 81 3f
       0.98981553 1.0151356 1.0053215 1.0078276
0000d0 59 2a 80 3f 58 50 89 3f d5 cb 7f 3f 2e 35 7e 3f
       1.0012923 1.0727644 0.999204 0.99299896
0000e0 e7 c1 88 3f 4c 3e 84 3f 87 61 7a 3f a5 41 83 3f
       1.0684174 1.0331511 0.97805065 1.0254408
0000f0 fc 12 7e 3f 64 16 7b 3f f2 c0 87 3f fa 0c 87 3f
       0.9924772 0.9808104 1.0605757 1.0550835

bias f4 [64]
000000 24 af be 3c 10 55 c6 bd 11 1c 0a bd 0b 72 c0 3d
       0.023276873 -0.09684193 -0.033718172 0.09396752
000010 7a e7 40 bc 63 a6 ab bb 5a ea c1 bd 19 03 7f bd
       -0.011773938 -0.0052383407 -0.09468527 -0.062258814
000020 9c cf 67 bc d8 37 e9 3d 7d e8 5a bd 60 d7 0a bd
       -0.014148619 0.113876045 -0.053444374 -0.033896804
000030 e4 ca 0c be 5e d7 0e 3d 52 84 a3 bc ca 7f f2 bb
       -0.13749272 0.03487336 -0.019960556 -0.0074004875
000040 dc f7 ca bd 26 1c f5 bd 06 a6 35 3c 46 37 20 bd
       -0.09910557 -0.119682595 0.011086946 -0.039115213
000050 0e a7 88 bd 3b 49 78 3d 6f a5 cf 3d 76 39 96 bd
       -0.06672488 0.060616713 0.10138976 -0.073351786
000060 3e 31 b8 3c 29 d8 f0 bd 74 9f e1 bd 30 1b 08 bd
       0.022484418 -0.11759979 -0.110167414 -0.033229053
000070 fb ca 1e bd d8 ba af 3b 62 75 dc b9 c0 69 e5 3d
       -0.038767796 0.0053628497 -0.00042049127 0.11201811
000080 5f a2 0b 3d df 1e 15 be b5 2e 81 bd bb e6 9b 3d
       0.034090396 -0.14562558 -0.06307737 0.07612368
000090 9f 8f 23 be f9 a7 79 3d 2e 4c 99 3c 8c ce 19 bd
       -0.15972756 0.060951207 0.018713083 -0.037550494
0000a0 45 47 c8 3d c3 65 d7 bd aa 31 1c bd ae a1 97 bd
       0.097792186 -0.105174564 -0.0381333 -0.07403885
0000b0 73 3e b7 bb c8 3f cc bc 27 50 f0 bc 7b e8 f1 bc
       -0.0055921613 -0.024932757 -0.029335095 -0.0295298
0000c0 3e d6 90 bd 23 0b f7 3d 72 f9 bd 3d 86 e2 f8 3d
       -0.070721135 0.12062671 0.092760935 0.12152581
0000d0 ff 45 51 3b 43 91 36 be 9f 8b 6f bd 43 f6 c2 3d
       0.003193259 -0.1782885 -0.058482762 0.09519627
0000e0 f6 c8 36 3d 5a af bd 3d 5f 07 72 3d 4b c3 c3 bc
       0.044625245 0.09261961 0.05908906 -0.023896834
0000f0 8e de e7 bd 45 3d 84 3d 91 5d 76 3d f2 72 d4 bc
       -0.11321746 0.06456999 0.060147826 -0.025933716

running_mean f4 [64]
000000 a8 9e b9 3f bf 97 2e 3f 39 15 14 3f 7c 21 d2 3f
       1.4501543 0.68200296 0.57844883 1.6416469
000010 54 60 25 3f d5 a9 0b 3f 7b 5f 36 3f 8f b3 de 3d
       0.6460011 0.5455602 0.7123944 0.10874092
000020 43 31 12 3f db a9 0c 3f 94 38 26 3f 3c 95 89 3f
       0.5710642 0.5494668 0.6493008 1.0748668
000030 9b b9 32 3f a5 1b aa 3d f3 ef eb 3f 87 d6 c1 3e
       0.6981446 0.08306054 1.8432602 0.37858984
000040 af 94 6a 3f 8f ba 8c 3e b5 7d 74 3f 32 eb 9a 3f
       0.91633123 0.27486083 0.95504314 1.2103026
000050 64 11 b5 3f 97 93 3d 3f bb fe 2e 3f 88 28 d7 3e
       1.4145932 0.7405333 0.6835744 0.4202311
000060 7b 18 dc 3f 0c da 30 3e 6a 6d 65 3f 77 85 8b 3f
       1.7194971 0.17270678 0.8962008 1.0900105
000070 e6 2a a4 3f da a5 df 3f e2 a1 4f 3f a5 f3 ab 3f
       1.2825592 1.7472489 0.8110639 1.343373
000080 89 62 4a 3f e7 67 5b 3e 21 4d 69 3f 1c f3 b3 3f
       0.790566 0.21426354 0.91133314 1.4058566
000090 98 5f 43 3f 7f bf a9 3e a7 0c aa 3e 63 94 79 3f
       0.7631774 0.33153912 0.33212778 0.97492045
0000a0 df f0 8b 3f 6d 7a 4c 3e 23 92 30 3f 83 24 b8 3f
       1.0932883 0.19968577 0.68972987 1.4386142
0000b0 8d ce 89 3f 95 76 41 3f aa f3 31 3f f2 0b 85 3f
       1.0766159 0.75571567 0.69512427 1.039427
0000c0 b0 a5 2e 3f 92 c9 71 3f f5 0e 66 3f 4d 8c 55 3f
       0.6822157 0.94448197 0.8986657 0.83417207
0000d0 85 8a 87 3f ba 51 2c 3e a7 03 50 3f 10 ab e4 3e
       1.0589148 0.16828051 0.81255573 0.4466176
0000e0 f9 28 58 3f ea f7 92 3f 66 43 a6 3f 47 78 37 3f
       0.8443752 1.1481907 1.2989318 0.71667904
0000f0 33 7c 49 3e aa 76 35 3f 2c ce 91 3f 34 ce 05 3f
       0.19676284 0.7088419 1.1391044 0.52267766

running_var f4 [64]
000000 ba f9 bd 3f 0a ee ea 3e ac 9e 9e 3f df 36 b9 40
       1.4841835 0.45884734 1.2392173 5.787948
000010 24 18 39 3f a7 0d 8e 3f 87 30 3b 3f dc ad cd 3d
       0.7230246 1.1097916 0.7312092 0.10042927
000020 07 e4 25 3f 5b 56 8b 3f 7f 7e f9 3e 1c 22 dc 3f
       0.6480107 1.0885729 0.4872932 1.7197909
000030 6d 18 b7 3f c2 7b a4 3d 73 f7 b1 40 40 22 e8 3e
       1.4304329 0.080314174 5.561456 0.4533863
000040 b4 db 45 40 b6 1f 10 3f 25 31 f0 3f 68 f7 77 40
       3.0915346 0.5629839 1.8764998 3.8744755
000050 67 69 1e 40 66 68 12 3f 84 65 6d 3f b9 83 3d 3f
       2.4751832 0.5719055 0.92733026 0.7402912
000060 78 d1 c8 40 fd 7f c6 3e 57 5d b1 3f eb 16 3e 3f
       6.27557 0.38769522 1.385661 0.7425372
000070 e5 12 c0 40 ce a7 b5 40 19 16 e8 3f 80 c2 79 40
       6.0023065 5.676734 1.8131744 3.9024963
000080 69 26 2d 3f 17 83 75 3e 37 36 2c 3f 46 7d c1 3f
       0.67636734 0.23975788 0.67270225 1.5116355
000090 9d 74 5b 3f 0c 0e a6 3e 85 e1 a8 3e dc 2c fe 3f
       0.8572481 0.32432592 0.32984558 1.985744
0000a0 64 5f c9 3f ea f2 71 3e c2 4f 5b 3f 16 ea 51 40
       1.5732236 0.2362782 0.85668576 3.2799125
0000b0 1f b1 cd 3f 67 d4 1b 3f b4 c3 b3 3f 38 bf 82 3f
       1.6069678 0.60870975 1.4044099 1.0214605
0000c0 4e 4f a8 3f a8 2d 4c 3f 68 77 22 3f a2 ca 41 40
       1.3149202 0.79757166 0.6346345 3.0279927
0000d0 0c 41 55 3f 52 01 34 3e aa 37 12 40 12 ca 42 3f
       0.8330238 0.17578629 2.2846475 0.76089585
0000e0 ad 28 38 3f 54 55 3a 3f a7 a2 91 40 c7 8c 03 3f
       0.71937066 0.7278645 4.551105 0.51386684
0000f0 a4 52 de 3e 05 30 f4 3e 98 9d 0a 40 57 11 d5 3e
       0.43422425 0.47692886 2.1658688 0.41614792

weight f4 [3, 64, 3, 3]
000000 28 7c 52 bc 2b 15 c2 bb 67 d6 0c 3d 02 4d 80 bb
       -0.012846984 -0.0059229336 0.034384158 -0.00391543
000010 7c 3a 6f bd f4 ea 2a bd 23 ee 08 bc 9c 39 72 bc
       -0.058405384 -0.041727975 -0.0083575575 -0.014784243
000020 4c 6c fa 3c ee 63 51 3d 35 f8 c4 3b 2d d2 90 ba
       0.030569218 0.05112069 0.006011034 -0.0011048965
000030 9a 38 cd bc cd ac 40 bd ea e2 63 3b 24 5e d4 3c
       -0.025051404 -0.047039796 0.0034772702 0.025923796
000040 17 11 e4 3b c9 aa c4 bc 90 48 66 bd 4b 44 b4 bc
       0.006960045 -0.024007218 -0.056221545 -0.02200522
000050 f9 a4 84 bd 9f c2 a1 3c 7d a2 55 3c b8 89 ef 3a
       -0.064767785 0.019746123 0.0130392285 0.0018275296
000060 4c 45 ad 3c 6b 95 be bc 46 6c 98 3c f1 61 df bc
       0.021151207 -0.023264607 0.018606316 -0.027268382
000070 ab 6a 59 bd 37 80 d7 bc fe 11 b4 3c 64 63 90 bc
       -0.053080242 -0.026306255 0.021981236 -0.017625518
000080 d1 b0 f1 3c 47 10 99 3c 4c da a3 3c 0c 4b b1 3b
       0.029503258 0.01868452 0.020001553 0.0054105576
000090 30 c6 45 bc d9 75 25 bd d1 52 f1 bc d1 02 90 bc
       -0.012071177 -0.04039559 -0.029458435 -0.017579468
0000a0 df cf 30 bc 24 90 94 bc d4 75 25 bd cf c0 12 3d
       -0.010791748 -0.018135138 -0.040395573 0.035828408
0000b0 47 7c ec bc 48 a0 f7 bb 7f 1a 04 bd 2a 36 10 3a
       -0.028867854 -0.007556949 -0.03225183 0.0005501235
0000c0 fb 22 d1 bc 9f 12 0b 3c 70 c7 24 bc 74 b9 ac bc
       -0.025529375 0.008488326 -0.010057315 -0.021084525
0000d0 ea 21 10 bc 98 97 1e bd 09 37 99 38 dd e1 5c bd
       -0.008797148 -0.03871879 7.3058596e-05 -0.053926338
0000e0 07 d5 b5 bc db d9 f3 3c 75 72 6b bd 04 e7 a2 3c
       -0.022196306 0.029766968 -0.0574822 0.019885547
0000f0 89 cc d8 3c 68 c5 c4 3a ef 65 e5 3c 5c a6 4c bc
       0.026464717 0.0015012445 0.028002707 -0.012490835
000100 af 6e f5 3c 76 d3 dc 3c f0 e6 21 bc ad b0 f1 ba
       0.029960005 0.026956301 -0.00988172 -0.0018439494
000110 85 d2 e8 3c cf 19 41 bc 3d 4d 4f 3d 1d 15 12 bb
       0.028420696 -0.011785938 0.05061077 -0.0022290417
000120 c2 a9 34 bc 79 0f 65 3b 36 a3 9e bc 36 e0 bc bb
       -0.011026802 0.003495185 -0.019364934 -0.0057640327
000130 ce df 5d 3d 6e 62 a9 3c 18 c6 b7 3a fc 9f 4a 3d
       0.054168515 0.020676818 0.0014020829 0.04946898
000140 d3 6a 35 3d 38 3c 79 bc fa e7 36 bd 16 22 d1 bb
       0.04429133 -0.015212111 -0.044654824 -0.006382237
000150 05 5d fa 3c ea 9c 34 3c 06 02 32 bd 00 62 56 bb
       0.030561933 0.011023739 -0.04345896 -0.003271222
000160 0f 4b 75 bd 89 a0 2b bd 71 9e 1a 3d 66 97 97 3c
       -0.059886035 -0.041901145 0.037748758 0.01850481
000170 3a 75 89 3c 82 88 cf 3c dd 63 c7 3c 2e de cc bc
       0.01677953 0.025333647 0.02433961 -0.025008287
000180 70 4b a5 bc 9b d4 2d bb 6a d3 b3 bc 25 01 71 bc
       -0.020177573 -0.0026524428 -0.021951396 -0.0147097455
000190 6c 9a 1f bd 9a 97 57 bd 0f e6 04 bb 65 e0 08 3c
       -0.038965628 -0.052634813 -0.0020278727 0.008354281
0001a0 29 bd d4 bc 22 a8 86 bc 45 6f b5 bc 13 74 3f bd
       -0.025969105 -0.016437594 -0.022147784 -0.046741556
0001b0 5f 63 39 bc 12 96 5d 3c ca bf 2c 3d 47 e3 98 bc
       -0.011315196 0.013524549 0.04217509 -0.018663062
0001c0 6e c0 f6 bc 0a f0 bd 3c 8a b3 b7 3c d8 fc 71 bb
       -0.030121055 0.023185749 0.022424478 -0.0036924388
0001d0 f0 37 8f 3c ae ec e1 3b 4c 21 5b 3d 68 16 d7 ba
       0.017482728 0.0068946695 0.05349855 -0.0016409876
0001e0 07 40 9f bb 2e d7 2a bc d2 06 27 3d 6c 01 46 bc
       -0.0048599276 -0.010427279 0.04077799 -0.0120853
0001f0 33 ba 81 3c 60 65 dc bc 65 d0 63 3c 84 9a a8 3c
       0.015835857 -0.026903808 0.013904666 0.020581491
000200 9f 1f 1d 3d 2a 23 43 bc 60 3d 44 3d 66 83 41 3d
       0.038360234 -0.011910239 0.047910094 0.047244452
000210 84 4b 14 bc a8 11 e1 3c 11 a5 3c 3d 13 f1 fe bb
       -0.009051207 0.02747424 0.046055857 -0.007780203
000220 fa 4d 95 bc e7 a0 1a bd f0 7a c6 bc 33 20 ae 3c
       -0.018225659 -0.037751105 -0.024228543 0.021255588
000230 de 38 68 bb 54 dd 14 bd 1a 85 4a 3c 10 21 66 bc
       -0.0035434286 -0.036343887 0.012360835 -0.014045969
000240 35 b9 44 3d f2 aa 50 3c bb 57 f7 3c fc 6e 18 3d
       0.04802819 0.012736069 0.0301932 0.037215218
000250 01 61 df 3c 41 ed c4 3c b6 24 ca 3b 91 a0 e5 3c
       0.027267935 0.024038913 0.006168927 0.028030666
000260 12 ea 49 3c e4 08 b9 3c aa 1f f5 3b a1 ba 40 3d
       0.012323873 0.022587247 0.0074805813 0.047052983
000270 8c ff 0d 3c 2c 0b 5d bc 19 89 32 3d ac e9 12 bc
       0.008666884 -0.013491433 0.043587778 -0.0089668445
000280 21 e3 3d bc 6b 99 c5 bc 9a 8e a5 bc 78 6e 55 bc
       -0.011589796 -0.024121007 -0.0202096 -0.013026826
000290 29 52 dd bc 17 4e 67 3c 26 bf d0 3b 59 e4 c6 bb
       -0.027016716 0.014117739 0.006370443 -0.0060697016
0002a0 b7 74 09 bd 71 e6 6f 3c 90 c3 26 bd 67 56 66 3d
       -0.033558574 0.014642344 -0.040713847 0.056234743
0002b0 95 79 4e bc a9 ad 1b bc 66 77 2d 3d 03 53 32 3d
       -0.01260223 -0.009501853 0.042350195 0.043536197
0002c0 16 77 e4 bc b9 a0 39 3c 55 6a 41 3d d7 56 cc bc
       -0.027888816 0.011329823 0.047220547 -0.024943752
0002d0 f9 60 2a bd 52 71 3c 3c 69 4f 7c 3c 8e a7 f6 bb
       -0.041596387 0.011501627 0.015399792 -0.0075272983
0002e0 4b eb 5d bd cd 76 17 bc 8e 75 48 3c 6f 09 5a 3c
       -0.05417947 -0.009244633 0.0122350585 0.013307913
0002f0 0c 50 04 3c e1 c6 2e bd 0e 4f 4d bc fa d3 93 bc
       0.008075725 -0.042670134 -0.012531055 -0.018045414
000300 90 d0 95 3c a9 1d b0 bb e5 a3 3b 3b 14 b7 2c ba
       0.018287927 -0.0053746295 0.0028631624 -0.000658856
000310 3c 28 4d bd 00 0e 50 bc ff 77 20 bd 38 92 82 3b
       -0.0500872 -0.01269865 -0.039176937 0.003984716
000320 a5 41 38 bd 73 a6 da 3c 70 e9 fe bc d0 9e 8b 3c
       -0.04498448 0.026690697 -0.031117171 0.017043501
000330 2e 93 e5 bc 00 00 14 3d 1c 85 86 3b f9 ac b3 bc
       -0.028024282 0.036132812 0.0041052233 -0.021933066
000340 f1 91 af 3c dd 38 c4 3b e1 e6 3b 3c e0 66 f4 bb
       0.021431895 0.005988224 0.01146862 -0.0074585527
000350 8e ed 00 3d 56 67 fc 3c a5 40 e4 bb cb a1 21 3d
       0.03147655 0.030810993 -0.006965714 0.03946094
000360 7a 55 21 3d ce 6c ae bc cf f3 02 bb 58 c9 3e bc
       0.039388157 -0.021292116 -0.0019981747 -0.011644684
000370 ec 7a 79 bc 13 90 91 3a 0c 79 46 3d 20 2c db 3c
       -0.015227061 0.001110556 0.048455283 0.026754439
000380 a0 8c ba 3c 3a ce 93 bb 39 43 3d bd 05 10 d6 bc
       0.022772133 -0.004510668 -0.046206687 -0.026130686
000390 be dc a1 3c 46 29 ba 3b c0 e6 80 3d a9 5f 44 3c
       0.019758578 0.0056811897 0.06294012 0.011985698
0003a0 70 ba 0b bc 36 22 84 3c ab 70 d6 3c 20 00 8c 3c
       -0.008528337 0.016129594 0.026176771 0.017089903
0003b0 75 57 f0 3c 02 82 a1 3c 99 a7 6f bc 9c 6f 0d 3c
       0.029338578 0.019715313 -0.014627361 0.008632567
0003c0 8b 15 1f 3d 83 f6 5f bc 5e 8b 58 3d 89 db 2c bd
       0.038838904 -0.013669613 0.052867286 -0.042201553
0003d0 11 27 b4 bc d9 b6 fb 3c e9 f6 85 bb e5 42 05 bd
       -0.021991285 0.030726837 -0.004088272 -0.0325345
0003e0 46 88 1b 3d 23 74 07 bd 93 3d 55 bd 3c 0b 23 bd
       0.037971757 -0.03306974 -0.052060675 -0.039805636
0003f0 36 ea 09 3d f8 d7 5e 3c 8b 92 73 bc e6 ac 6f ba
       0.033670627 0.013601296 -0.014866482 -0.00091428903

bias f4 [3]
000000 5a 50 8e bd b5 31 d3 3d ef e2 98 bd
       -0.069489196 0.10312215 -0.07465159

_v f4 [1, 1, 16, 16]
000000 bc 66 d3 3e 74 62 4c 3e 78 53 04 3f ee 73 03 3f
       0.41289318 0.19959432 0.51689863 0.5134877
000010 56 a8 f9 3e b8 db cb 3e 28 3a 51 3e a8 4d 59 3e
       0.48761243 0.3981607 0.20432341 0.2122103
000020 04 36 30 3e 5f 1b 2f 3f 3c 3f 11 3f 92 e7 aa 3e
       0.17208105 0.6840114 0.56737113 0.333798
000030 f8 3e d8 3d bb f2 71 3f fc 1e a7 3e e8 9e 1c 3f
       0.10558885 0.94511 0.32640827 0.6117997
000040 b6 6b 26 3f ac bc 10 3f 74 7e 87 3e 44 97 21 3f
       0.65008104 0.5653789 0.26463664 0.6312144
000050 8e 1a 0c 3f a8 37 12 3e cb ca 51 3f 00 02 1b 3b
       0.5472802 0.14279044 0.8195006 0.0023652315
000060 af b2 51 3f 2d 8e 71 3f ac 41 79 3f b4 8f 5e 3f
       0.81913275 0.9435757 0.9736583 0.86938024
000070 60 f4 04 3d 70 a0 32 3f 97 02 08 3f 89 5f 3d 3f
       0.032459617 0.6977606 0.5312895 0.739739
000080 0e f1 47 3f 0d 80 5d 3f 13 1a 4a 3f 35 a7 44 3f
       0.78102195 0.86523515 0.78946036 0.7681764
000090 65 ec 68 3f 2c d8 7f 3e 74 50 a7 3e 68 8f 9c 3e
       0.9098571 0.24984807 0.32678568 0.3057816
0000a0 92 89 b4 3e d8 fe 06 3e c0 2d 43 3e 7b c0 5b 3f
       0.35261208 0.13183153 0.19060421 0.85840577
0000b0 cf fb 2a 3f bb 7e 74 3f 90 31 77 3d 2e 54 e4 3e
       0.6679048 0.95505875 0.06035 0.44595474
0000c0 68 f4 05 3f 40 a0 19 3e 24 4c 45 3e 98 c4 c6 3d
       0.5232606 0.15002537 0.19267327 0.09705466
0000d0 50 b9 11 3e 8e ac e9 3e eb 12 64 3f 8c a5 51 3f
       0.14230847 0.4563946 0.89091367 0.8189323
0000e0 63 4a 54 3f 17 4d 26 3f fe c6 88 3e 24 38 65 3e
       0.82926005 0.6496138 0.2671432 0.22384697
0000f0 cc b3 4c 3e e3 08 5f 3f cf 63 35 3f 5e ad a0 3e
       0.19990462 0.87122935 0.7085542 0.3138227
000100 bb 9a 0d 3f ef ac 61 3f 57 a2 12 3f c8 bc 33 3e
       0.55314225 0.881545 0.5727896 0.17552483
000110 e5 38 1a 3f 9c 32 44 3e cc 3b d9 3e 16 b0 73 3f
       0.60243064 0.19159931 0.42428434 0.9519056
000120 b7 50 26 3f d6 cc e8 3e 0a de 97 3e 9f 7c 7b 3f
       0.6496691 0.45468777 0.2966159 0.9823703
000130 4a 6a 34 3f ac b6 8b 3e 72 2c e7 3e 6b ad 1c 3f
       0.70474684 0.27287805 0.45151097 0.61202115
000140 18 8e b2 3e 98 68 34 3e 54 ac be 3e 00 8d 4c 3f
       0.34874034 0.17618024 0.3724085 0.7990265
000150 48 b8 2e 3e 6e 40 c6 3e 59 31 5f 3f 5c d3 66 3f
       0.17062485 0.3872103 0.87184674 0.9016626
000160 29 3b 51 3f 62 e2 e8 3e 19 5f 00 3f 64 b9 33 3e
       0.81730896 0.45485216 0.5014511 0.1755119
000170 76 d9 8f 3e cc 34 fc 3e 60 96 98 3d 20 f3 2c 3d
       0.28095597 0.4925903 0.07450557 0.04222405
000180 d8 11 3f 3e f8 8a ea 3e df 3e 4e 3f 78 45 2c 3e
       0.1865915 0.4580915 0.80564684 0.16823375
000190 26 9e 27 3f 28 2e df 3e 7f 71 3f 3f ce 2e dc 3e
       0.6547569 0.43589902 0.74782556 0.4300446
0001a0 f8 87 31 3f ee 63 43 3f 74 2a 7c 3f 04 87 59 3f
       0.69348097 0.76324356 0.9850228 0.8497164
0001b0 e9 1c 19 3f 96 44 7f 3f 64 e0 7f 3f fa 85 11 3f
       0.5980974 0.9971403 0.9995177 0.56845057
0001c0 75 a9 64 3f e0 12 a9 3e 4f 9b 4c 3f a2 bc ee 3e
       0.8932107 0.33022213 0.7992448 0.4662829
0001d0 e0 ad ea 3c 49 8a 08 3f 50 75 05 3f b1 7f 7b 3f
       0.028647363 0.53336006 0.5213213 0.98241717
0001e0 50 97 93 3d e0 b9 52 3d 9a 48 cb 3e 7c fb 11 3f
       0.07206595 0.051446795 0.39703828 0.5702436
0001f0 ff 8a 23 3f 2e 24 0e 3f 86 44 3c 3f 16 41 23 3f
       0.63883966 0.55523956 0.7354206 0.6377119
000200 ef 4a 0b 3f 1c 6d ab 3e f6 c1 9f 3e d0 df 63 3f
       0.54411215 0.3348168 0.31202668 0.89013386
000210 38 c3 65 3e 9a 7c 33 3f 04 43 de 3e 66 b1 d3 3e
       0.22437751 0.70112 0.43410504 0.41346282
000220 46 3f a2 3e 90 de 79 3d 00 eb 2c 3c ec ea f5 3e
       0.316889 0.061003268 0.010554075 0.48030794
000230 00 06 f5 3b fc 2b 0c 3f e8 1c 2f 3e 68 1c ec 3d
       0.007477522 0.54754615 0.1710087 0.115288556
000240 08 fd 64 3f f0 dd 3b 3e 58 74 cc 3e 10 d1 ab 3d
       0.89448595 0.18346381 0.39932513 0.08389485
000250 94 6f c0 3e 18 34 bc 3e 3f a2 66 3f 17 f8 2f 3f
       0.37585127 0.36758494 0.9009132 0.6873793
000260 d4 c0 b0 3e 00 6c 16 3f ea 06 a6 3e dd 06 5f 3f
       0.34522116 0.58758545 0.3242715 0.8711985
000270 0e b3 97 3e 6a 6c 25 3f a3 38 3d 3f ac 62 ca 3e
       0.29628795 0.6461855 0.73914546 0.39528406
000280 50 49 54 3e ce d4 86 3e 8a 30 c3 3e 15 ff 59 3f
       0.20731091 0.26334232 0.3812297 0.8515485
000290 e1 8b 1d 3f 18 bd 5e 3f 40 7b 05 3c 40 71 ef 3d
       0.61541563 0.87007284 0.008147061 0.116915226
0002a0 c9 ad 24 3f 12 8e 51 3f fd 4b 61 3f e8 e4 78 3e
       0.64327675 0.8185741 0.88006574 0.24306071
0002b0 ef 59 57 3f 38 b1 e8 3d a0 1d 2d 3d 6a 24 e9 3e
       0.841216 0.11361927 0.04226458 0.45535594
0002c0 c0 82 3c 3e 00 4f 45 3d 67 b7 4b 3f 50 e7 43 3d
       0.18409252 0.048171043 0.79576725 0.04782802
0002d0 fe 5a 80 3e fd 07 71 3f fc 8b b5 3e 94 5c 5f 3e
       0.25069422 0.94152814 0.35458362 0.2181266
0002e0 58 c8 87 3e 88 d0 dc 3d c0 5d 74 3c 2a 49 85 3e
       0.26520038 0.10781962 0.01491493 0.26032382
0002f0 81 71 3b 3f 7d 2a 79 3f 36 9c 29 3f 7a e3 f6 3e
       0.7322007 0.97330457 0.66253984 0.48220426
000300 3e f7 f7 3e dc 99 41 3e be b4 10 3f 60 4e 44 3f
       0.48430818 0.18906349 0.5652579 0.7668209
000310 e8 ef 61 3e 9a d5 cd 3e 1f de 0d 3f 44 d7 df 3e
       0.22064173 0.40202028 0.55417055 0.43718922
000320 62 eb e5 3e 6a ba 46 3f dd 93 21 3f 26 68 18 3f
       0.44906145 0.77628195 0.63116246 0.5953392
000330 46 00 cc 3e 46 8f d3 3e c7 41 04 3f eb 9f 23 3f
       0.3984396 0.41320246 0.5166287 0.6391589
000340 a6 a8 83 3e 00 75 99 3e da 2a f8 3e be 5e 8f 3e
       0.25714606 0.29972076 0.48470193 0.2800197
000350 09 4e 79 3f f6 f0 f3 3e 4c d1 20 3f 10 4d 94 3e
       0.973847 0.47644776 0.6281936 0.28965044
000360 3e b3 30 3f 92 f0 6e 3f d9 7a 7b 3f 6e 33 85 3e
       0.690235 0.9333583 0.98234326 0.260158
000370 e5 8f 21 3f c6 12 06 3f 77 1c 74 3f 14 f8 d9 3e
       0.6311019 0.52372396 0.95355934 0.4257208
000380 9a f2 69 3f b6 ef 27 3f b8 81 bc 3d bc 59 94 3e
       0.91385806 0.65600145 0.092044294 0.28974712
000390 23 79 4a 3f 67 87 0b 3f a0 aa 51 3e 20 9b ff 3d
       0.7909109 0.5450348 0.20475245 0.124807596
0003a0 41 d2 67 3f 60 96 19 3e c3 23 58 3f 48 7b e2 3e
       0.90555197 0.1499877 0.8442957 0.4423468
0003b0 4a 7f 7c 3f ba cc 53 3f a3 d0 7f 3f 1c be 00 3f
       0.9863173 0.8273426 0.9992773 0.50290084
0003c0 e0 65 40 3d ac f6 1e 3f 40 fb 7a 3f b1 b9 10 3f
       0.046972156 0.6209514 0.9803963 0.5653334
0003d0 ba 51 56 3f 40 fe 0a 3f 3e 2f a0 3e 4e cd fe 3e
       0.83718455 0.54294205 0.31286043 0.4976601
0003e0 58 3d f9 3e a5 ab 55 3f cd f5 33 3f 5e e9 a9 3e
       0.48679614 0.83465034 0.7029694 0.33185858
0003f0 5e a5 83 3e 5f e1 54 3f d2 3a 07 3f c1 24 43 3f
       0.25712103 0.8315639 0.5282413 0.76227957
